recovery/root/odm/variant/xuanyuan/odm/firmware/glove_model.tflite (tflite, 7776 bytes, 13 tensors)

sequential/fc1/BiasAdd/ReadVariableOp f4 [2]
0	0x3d30fff1	0.043212835
1	0xbd30ff8b	-0.043212455

sequential/relu0/Relu;sequential/bn0/FusedBatchNormV3;sequential/ftr0/BiasAdd/ReadVariableOp;sequential/ftr0/BiasAdd;sequential/ftr1/separable_conv2d/depthwise;sequential/ftr0/separable_conv2d f4 [8]
0	0xbd50e96e	-0.051003866
1	0x3f57300c	0.8405769
2	0x3b4acda3	0.0030945323
3	0xbccba2e0	-0.024857938
4	0xbefc44d7	-0.4927127
5	0x3d984ade	0.07436155
6	0x3c7d8b4a	0.015475104
7	0x3d860471	0.06543816

sequential/relu1/Relu;sequential/bn1/FusedBatchNormV3;sequential/ftr1/BiasAdd/ReadVariableOp;sequential/ftr1/BiasAdd;sequential/ftr2/separable_conv2d;sequential/ftr1/separable_conv2d f4 [16]
0	0x3ed400e8	0.4140694
1	0x3e1ef358	0.15522516
2	0xbd41d2e0	-0.047320247
3	0x3f83dfc5	1.0302664
4	0x3ef0b3ff	0.47012326
5	0x3d28f3e4	0.041248217
6	0xbea6dd64	-0.32590783
7	0x3f081335	0.5315431
8	0x3f979147	1.184121
9	0xbb9f3280	-0.004858315
10	0xbec849dd	-0.39118853
11	0x3f135f9e	0.57567775
12	0x3f6878f7	0.9080958
13	0x3f9aec3f	1.2103347
14	0xbf98866f	-1.1916026
15	0x3db6b324	0.08920887

sequential/activation/Relu;sequential/bn2/FusedBatchNormV3;sequential/ftr2/BiasAdd/ReadVariableOp;sequential/ftr2/BiasAdd;sequential/ftr2/separable_conv2d f4 [16]
0	0xbf039f80	-0.5141525
1	0xc02c7890	-2.6948586
2	0x3f831e78	1.0243673
3	0xbf8b6020	-1.088871
4	0x3f10fe60	0.56638145
5	0xbfcb2020	-1.5869179
6	0x3f3b7400	0.73223877
7	0xbf9a6520	-1.2062111
8	0xc05f9430	-3.4934196
9	0xbe51da00	-0.20493317
10	0xbfc99850	-1.5749607
11	0xbfa24b40	-1.2679214
12	0xbdf3f000	-0.11911011
13	0xbff82710	-1.9386921
14	0x3f8a5a80	1.0808868
15	0x3c6f1800	0.014593124

sequential/fc1/MatMul f4 [2, 16]
0	0xc04a14f5	-3.157529
1	0xc04ef2c3	-3.233567
2	0xc034e6b9	-2.8265822
3	0x3ffae1df	1.960018
4	0xc043efb3	-3.061505
5	0xc055978f	-3.3373754
6	0x3ff4159c	1.9069095
7	0xc0395726	-2.895944
8	0x3fd43da1	1.6581308
9	0xc01e2286	-2.4708571
10	0x4020f2a1	2.514809
11	0x40051239	2.0792372
12	0xc0142fee	-2.3154254
13	0xc02c2253	-2.689595
14	0xc0429c17	-3.040777
15	0x3fcb6519	1.5890228
16	0x40324744	2.7855997
17	0x40289c28	2.634531
18	0x4048f134	3.1397219
19	0xc00c0c25	-2.1882412
20	0x405a4ef8	3.4110699
21	0x402fa19e	2.7442393
22	0xc0202290	-2.5021095
23	0x401b3328	2.4249973
24	0xbf6216c6	-0.88316
25	0x403a1ab0	2.9078789
26	0xc00bac3c	-2.1823874
27	0xc030134a	-2.7511773
28	0x3fe8f907	1.8200997
29	0x404b25b4	3.1741762
30	0x40133104	2.2998667
31	0xc012f925	-2.2964566

sequential/ftr0/separable_conv2d/depthwise1 f4 [1, 3, 3, 1]
0	0xbecf81db	-0.4052876
1	0xbe038cd5	-0.12846692
2	0xbf5b67e2	-0.8570539
3	0xbf5881d9	-0.8457313
4	0x3ead7a80	0.33882523
5	0xbe70a73a	-0.23501292
6	0x3e7f665c	0.24941391
7	0x3f11ad53	0.56905097
8	0x3ebaef92	0.36510903

sequential/ftr0/separable_conv2d f4 [8, 1, 1, 1]
0	0x3cadc799	0.02121334
1	0x3c5d3288	0.013500817
2	0x3c8ea339	0.017411815
3	0xbc7d78f4	-0.015470732
4	0x3c83aff5	0.016075114
5	0xbc9e9bf8	-0.019361481
6	0xbcb6e2fe	-0.022325035
7	0x3c89566e	0.016764846

sequential/ftr1/separable_conv2d/depthwise f4 [8]
0	0x00000000	0.0
1	0x00000000	0.0
2	0x00000000	0.0
3	0x00000000	0.0
4	0x00000000	0.0
5	0x00000000	0.0
6	0x00000000	0.0
7	0x00000000	0.0

sequential/ftr1/separable_conv2d/depthwise1 f4 [1, 3, 3, 8]
0	0x3dd26a7e	0.10274218
1	0xbedf2be9	-0.43588188
2	0xbd211f20	-0.039336324
3	0x3f081db0	0.531703
4	0x3e766b29	0.24064316
5	0x3e4d991c	0.20077938
6	0xbde01d3b	-0.10943075
7	0x3e15e1bc	0.14636892
8	0xbd625113	-0.0552531
9	0xbed69ad5	-0.41915002
10	0xbf2b2b49	-0.6686292
11	0xbef19aeb	-0.47188506
12	0x3e818e0a	0.2530368
13	0x3dcbb07e	0.099457726
14	0xbd8fb6e7	-0.07017308
15	0xbca4b8fd	-0.02010774
16	0xbe9e2e7c	-0.3089484
17	0x3ef0a3cf	0.46999976
18	0xbbe8d75b	-0.0071057505
19	0xbcf57790	-0.029964238
20	0x3eb51fd8	0.35375857
21	0x3e3e309a	0.18573228
22	0x3e3a5c07	0.18199168
23	0x3f04dd60	0.5190029
24	0x3f060cbf	0.523632
25	0x3effd69c	0.4996842
26	0x3d22276e	0.039588384
27	0xbe473732	-0.19454649
28	0x3e0561d0	0.13025594
29	0x3f04600b	0.5170905
30	0xbed938e7	-0.42426226
31	0x3e1bdcd1	0.15220954
32	0x3f06bca4	0.5263159
33	0xbe9c19cb	-0.30488428
34	0xbf240a51	-0.6407824
35	0xbe8f4795	-0.279843
36	0x3e52b9bc	0.20578665
37	0xbca06735	-0.019580463
38	0x3f557cd7	0.83393615
39	0x3ee8a3ff	0.4543762
40	0xbec4be25	-0.3842632
41	0xbd7a73f3	-0.061145734
42	0x3e827286	0.25478
43	0x3f03d247	0.5149273
44	0x3ee28752	0.44243866
45	0x3e7340fb	0.23755257
46	0xbe2d1a34	-0.16904527
47	0x3f1e5d6d	0.61861306
48	0x3e9dfa28	0.30854917
49	0xbda50e07	-0.08059316
50	0x3ddaadc0	0.106776714
51	0xbd1335e0	-0.03594005
52	0x3db6b3c0	0.08921003
53	0xbe90c011	-0.28271535
54	0xbef79b53	-0.4836069
55	0x3dd96a23	0.10615947
56	0x3ef6e327	0.48220178
57	0xbeeddb86	-0.46456546
58	0x3dc7e3a2	0.097602144
59	0x3e628d86	0.221243
60	0x3f4eee52	0.808324
61	0xbf09dab6	-0.5384935
62	0x3ead50de	0.3385076
63	0x3ebb9262	0.3663512
64	0xbf11b9fa	-0.569244
65	0x3e636e25	0.22209986
66	0xbc9bf75e	-0.019038852
67	0x3ed6cffe	0.4195556
68	0x3ef15d52	0.4714151
69	0x3f349033	0.7053253
70	0x3e7b5653	0.24544649
71	0x3e804771	0.25054505

sequential/ftr1/separable_conv2d f4 [16, 1, 1, 8]
0	0xbe0aa943	-0.1354113
1	0xbe589b21	-0.21152927
2	0x3ec49af1	0.3839946
3	0x3e3e1674	0.18563253
4	0xbfc2582b	-1.5183157
5	0xbee23090	-0.44177675
6	0xbe78bd11	-0.24290873
7	0xbee1b067	-0.44079897
8	0xbf55f990	-0.8358393
9	0x3dd0fd11	0.102045186
10	0xbebd71f3	-0.37001
11	0xbfd0cddf	-1.6312827
12	0xbeda1458	-0.42593646
13	0xbe371ecb	-0.1788284
14	0x3f014bd7	0.5050635
15	0xbe328325	-0.1743284
16	0x3f729861	0.9476376
17	0xbe30b91f	-0.17258118
18	0xbf97e80c	-1.186769
19	0xbdea3e39	-0.11437649
20	0xbf11d18a	-0.56960356
21	0x3ea1fac1	0.31636623
22	0xbf7e09d0	-0.9923372
23	0x3d61d327	0.05513301
24	0x3ea0d599	0.31412962
25	0xbd9292b0	-0.07156885
26	0x3eac81d0	0.3369279
27	0xbee908d6	-0.45514554
28	0xbe81093f	-0.25202367
29	0xbd349f4b	-0.044097226
30	0xbf64bc4c	-0.8934982
31	0xbe8c132e	-0.27358383
32	0xbf6e790f	-0.9315347
33	0x3f0769d2	0.52895844
34	0x3eafba10	0.34321642
35	0x3e97787e	0.29584116
36	0xbc9fdc12	-0.019514117
37	0xbe5b7e47	-0.2143489
38	0x3f443deb	0.7665698
39	0xbea21f9a	-0.31664735
40	0xbe5476d8	-0.2074846
41	0xbe778d09	-0.24174894
42	0x3f2f3d67	0.6845307
43	0xbec3f2e8	-0.3827126
44	0xbf6acb9b	-0.9171693
45	0xbd79a40c	-0.060947463
46	0xbec748b9	-0.3892267
47	0x3ffd24d2	1.9776862
48	0x3db41601	0.087932594
49	0xbf6266f5	-0.8843835
50	0x3eeeaf3e	0.46618074
51	0xbeb8bf90	-0.3608365
52	0xbeeab9e7	-0.45844957
53	0x3f6a2264	0.91458726
54	0x3d26943a	0.040668704
55	0x3d6d72ee	0.057970934
56	0x3f34e498	0.70661306
57	0x3e6a1fe3	0.22863726
58	0x3ecea516	0.40360326
59	0x3f25aebb	0.6471974
60	0x3de8d038	0.113678396
61	0xbe0795ba	-0.1324071
62	0x3ec1d58b	0.37858233
63	0x3e9c676a	0.3054765
64	0xbe4ae0c1	-0.198123
65	0x3e6a6406	0.22889718
66	0x3f2a3172	0.664817
67	0xbf060eaf	-0.52366155
68	0x3e297528	0.16548598
69	0xbe3d66bb	-0.1849622
70	0x3eb32f25	0.34996906
71	0xbf34f3c3	-0.7068445
72	0x3f2633b9	0.6492267
73	0xbe9ae163	-0.3025008
74	0xbeda3735	-0.42620245
75	0x3f2fbe97	0.6865019
76	0x3e850f2f	0.25988147
77	0x3f55895c	0.8341272
78	0xbf9805df	-1.1876792
79	0xbf963956	-1.1736248
80	0xbd5e9abc	-0.054346785
81	0x3f21e148	0.63234377
82	0x3e218f4e	0.15777323
83	0x3d189c57	0.037258472
84	0x3e9cf9f4	0.3065945
85	0x3f4e7208	0.8064275
86	0x3e8e3a03	0.27778634
87	0x3e28f7ea	0.16500822
88	0xbef2f7e4	-0.4745475
89	0x3f22d885	0.6361163
90	0xbf1914b2	-0.59797204
91	0x3f35c606	0.71005285
92	0x3e1fcb76	0.15604958
93	0x3d514e8f	0.05110031
94	0xbebb2d1f	-0.36557862
95	0xbfb51422	-1.4146769
96	0x3f522e46	0.8210186
97	0x3f137f97	0.5761656
98	0xbebebf9f	-0.3725557
99	0x3d96fdd5	0.07372633
100	0xbf1bb383	-0.6082079
101	0x3e8af35b	0.2713879
102	0x3d75f2d2	0.060046025
103	0x3e816194	0.2526976
104	0xbd69d74f	-0.0570901
105	0x3f2a0ccb	0.6642577
106	0xbecc8463	-0.39944753
107	0xbd627176	-0.055283986
108	0xbf30e38e	-0.6909722
109	0xbeab7e1d	-0.33494654
110	0x3d418229	0.04724327
111	0xbeae43ba	-0.34036046
112	0xbf7be4f9	-0.9839626
113	0x3c37f61d	0.011228112
114	0xbecdab9d	-0.40169993
115	0xbe8459b5	-0.2584969
116	0x3d16e734	0.036841586
117	0x3e66c942	0.22537711
118	0x3e988e32	0.29795986
119	0x3daeebf3	0.085410975
120	0xbe17a712	-0.14809826
121	0x3ede74db	0.4344853
122	0x3fa9fe20	1.3280678
123	0x3d88864a	0.066662386
124	0x3c1a9311	0.009434477
125	0xbf6f3f8c	-0.9345634
126	0x3f105eba	0.5639454
127	0x3f186445	0.59528

sequential/ftr2/separable_conv2d/depthwise f4 [1, 3, 3, 16]
0	0x3f0f5d38	0.56001616
1	0xbd1ba18f	-0.03799587
2	0xbef85bb9	-0.4850748
3	0xbecdb404	-0.40176404
4	0xbdb078b0	-0.08616769
5	0x3c2b28dc	0.010446753
6	0x3e07c796	0.1325973
7	0xbee69827	-0.45037958
8	0xbdd83c7d	-0.10558412
9	0x3e3d530f	0.18488716
10	0xbb5b4262	-0.0033456315
11	0xbf376c30	-0.71649456
12	0xbe9b36c9	-0.30315235
13	0x3f758d36	0.95918596
14	0xbf18a9dc	-0.59634185
15	0xbe59b882	-0.2126179
16	0x3e98503e	0.2974872
17	0xbf21350a	-0.62971556
18	0x3ef16a4b	0.47151408
19	0x3ee275e9	0.44230583
20	0xbe84af44	-0.25914967
21	0x3ed5d6cf	0.41765448
22	0x3d134124	0.035950795
23	0x3e79f047	0.24408065
24	0xbec036f2	-0.3754192
25	0xbdb2dd0b	-0.08733567
26	0xbe931262	-0.28724962
27	0x3d163624	0.036672726
28	0xbd8afb2f	-0.06786191
29	0xbe828816	-0.2549445
30	0x3ef2f3a9	0.47451523
31	0x3e924bb8	0.28573394
32	0xbf1177cb	-0.56823415
33	0x3e2c33f5	0.16816695
34	0x3e86f9f3	0.2636257
35	0xbdb4cb58	-0.08827847
36	0x3c734ac0	0.014849365
37	0xbe94b0cf	-0.29041144
38	0xbe61feb1	-0.22069813
39	0x3ebc10f1	0.36731675
40	0x3df68d35	0.12038652
41	0x3e4aab5f	0.19791935
42	0xbe0b1904	-0.13583761
43	0xbdfd68fd	-0.123735406
44	0x3ece426c	0.4028505
45	0x3c7a5b78	0.015280597
46	0xbd26e716	-0.040747724
47	0xbedd875d	-0.43267336
48	0xbe350198	-0.17676389
49	0x3e9ad3c0	0.30239677
50	0xbea76610	-0.32695055
51	0x3f330f32	0.6994506
52	0x3eac9f2f	0.33715197
53	0x3ea853c6	0.32876414
54	0xbeaeb11c	-0.341195
55	0xbf2bf6ff	-0.6717376
56	0x3ed7d88e	0.42157406
57	0xbe71401f	-0.23559617
58	0x3f29530f	0.6614236
59	0xbdededb0	-0.11617601
60	0xbe975b68	-0.29561925
61	0x3e23243a	0.15931788
62	0x3f0b4d95	0.54415256
63	0x3d91952c	0.071085304
64	0x3eae5278	0.34047294
65	0xbf1dade6	-0.6159347
66	0x3e189835	0.14901812
67	0x3f42644d	0.75934297
68	0xbe0ae556	-0.13564047
69	0xbea76883	-0.32696924
70	0xbe8ae3e3	-0.2712699
71	0xbdeba468	-0.115059674
72	0xbf1a9aca	-0.6039244
73	0xbf539392	-0.8264705
74	0x3e9f95c4	0.3116895
75	0x3eddfcba	0.43356878
76	0x3f1ee4de	0.62067974
77	0x3d6f1a3b	0.058374625
78	0x3d5f16c1	0.05446506
79	0x3f3517b7	0.7073931
80	0x3e9b1c42	0.30294997
81	0xbe68d498	-0.22737348
82	0xbe769225	-0.24079187
83	0x3d6d674c	0.05795984
84	0xbf683f56	-0.9072164
85	0x3dc99653	0.09843125
86	0x3ef1311c	0.4710778
87	0xbe2e0fe5	-0.16998251
88	0x3f2eaaf9	0.68229634
89	0xbd95c262	-0.07312466
90	0x3e0d45f9	0.13796224
91	0x3f165d0d	0.58735734
92	0xbe927dfb	-0.2861174
93	0x3e12d98d	0.14340802
94	0x3e8b910f	0.27259108
95	0xbdb4c1f7	-0.08826058
96	0xbe85bf41	-0.26122478
97	0xbdc9c3cc	-0.098517984
98	0x3e132303	0.14368825
99	0x3d4c9dd4	0.049955204
100	0xbea208b8	-0.31647277
101	0x3ea9d304	0.33168805
102	0xbee75ae0	-0.4518652
103	0x3d4d572c	0.05013196
104	0xbe7057be	-0.23470971
105	0x3ed13521	0.40860847
106	0x3ebe3243	0.37147722
107	0x3e992975	0.29914442
108	0x3e9ed417	0.31021187
109	0x3e3948c0	0.18094158
110	0xbe217067	-0.15765534
111	0xbdfcb77e	-0.12339686
112	0x3f708a96	0.93961465
113	0xbeb0719d	-0.3446168
114	0x3f21df58	0.6323142
115	0xbec6aa6f	-0.38801906
116	0x3e8dabaa	0.27670032
117	0xbf4e2096	-0.8051847
118	0xbdaaaf9d	-0.08334277
119	0xbdcbded5	-0.09954611
120	0x3e9e65be	0.30936998
121	0x3e691baa	0.22764459
122	0xbcc53797	-0.024074359
123	0x3ed5aba7	0.41732523
124	0xbeb8751b	-0.36026844
125	0x3e82343d	0.2543048
126	0x3ec90ec2	0.39269072
127	0x3eb6bd30	0.35691214
128	0xbe5071cf	-0.20355915
129	0x3ed2b382	0.4115258
130	0xbe514a59	-0.20438518
131	0x3dcff6ee	0.1015452
132	0x3e9229a1	0.28547385
133	0x3e385169	0.17999806
134	0xbd91b460	-0.07114482
135	0xbec7ce01	-0.39024356
136	0xbe68aee8	-0.22722971
137	0xbc26ac35	-0.010172893
138	0x3ecec3d5	0.40383783
139	0x3e86bdb7	0.26316616
140	0x3c1c55c9	0.009541937
141	0xbec9eb71	-0.3943744
142	0x3f16581b	0.5872819
143	0x3d0c1b5c	0.03420578

sequential/ftr2/separable_conv2d f4 [16]
0	0x00000000	0.0
1	0x00000000	0.0
2	0x00000000	0.0
3	0x00000000	0.0
4	0x00000000	0.0
5	0x00000000	0.0
6	0x00000000	0.0
7	0x00000000	0.0
8	0x00000000	0.0
9	0x00000000	0.0
10	0x00000000	0.0
11	0x00000000	0.0
12	0x00000000	0.0
13	0x00000000	0.0
14	0x00000000	0.0
15	0x00000000	0.0

sequential/ftr2/separable_conv2d1 f4 [16, 1, 1, 16]
0	0xc060ec91	-3.5144389
1	0x3f5daa7f	0.8658828
2	0x3fa5a5ce	1.2941225
3	0xbfe0319b	-1.7515138
4	0xbfb13edf	-1.3847312
5	0x3eca4a90	0.39510012
6	0xbe844b74	-0.25838816
7	0xc04c9d92	-3.1971173
8	0x3fb593d0	1.4185734
9	0xbfd4bf41	-1.6620866
10	0xc0540d5a	-3.313315
11	0xbdd4c84d	-0.10389767
12	0x3f958624	1.1681561
13	0xbdf7fb9d	-0.12108538
14	0x3fdc236b	1.7198309
15	0x3edcd158	0.43128467
16	0x3ec0303e	0.37536806
17	0xc082f680	-4.0925903
18	0x3ebab70b	0.36467776
19	0x3ecd9959	0.40156057
20	0x3bb03aa2	0.0053780833
21	0xbfd80833	-1.6877502
22	0xbff6904f	-1.926279
23	0x4018005f	2.3750226
24	0x3ff9087a	1.9455712
25	0xbf512b94	-0.8170712
26	0xbe3e1794	-0.18563682
27	0x402aa62b	2.666392
28	0xc01d6dc2	-2.459824
29	0x3ffa69c2	1.9563525
30	0x3f24cc44	0.64374185
31	0x4020eba1	2.5143816
32	0xbf95892c	-1.1682487
33	0xbfa8b4ec	-1.3180213
34	0xbde0eb84	-0.10982421
35	0xc06a25bf	-3.6585538
36	0x401d867e	2.4613338
37	0xbea53826	-0.322694
38	0xbe68ec6d	-0.2274644
39	0xbf6a99ee	-0.9164113
40	0x3dadcd17	0.084863834
41	0xc02b23d9	-2.674063
42	0xbfefe7c6	-1.8742607
43	0x3fdd2c61	1.7279168
44	0x3f1fdc6e	0.62445724
45	0x3fbcc0e0	1.4746361
46	0x400a4c40	2.160904
47	0x401d4d63	2.4578483
48	0xbfa57670	-1.2926769
49	0xc02096ea	-2.509211
50	0x4003a51b	2.0569522
51	0x3fc7b9bf	1.560356
52	0x3e2aedf0	0.16692328
53	0xbf1c7ede	-0.61131084
54	0x3f95fd4b	1.1717924
55	0xbf2e0f63	-0.6799223
56	0xc0362d81	-2.8465273
57	0x3fd84409	1.6895763
58	0x3de5ba23	0.112171434
59	0xbe6183eb	-0.22022979
60	0xc005095a	-2.0786958
61	0xbffaeebd	-1.9604107
62	0x3f8d686b	1.1047491
63	0x3fbde657	1.4835919
64	0x3eaae657	0.3337886
65	0xbfa5afc8	-1.2944269
66	0x3ef8f547	0.48624632
67	0xc05bc07b	-3.433623
68	0x4033c861	2.8091052
69	0xbeea4dee	-0.4576258
70	0x3f41d26b	0.757117
71	0xbec909a1	-0.3926516
72	0xbede9f53	-0.4348093
73	0xc03b39fc	-2.925414
74	0xbf894732	-1.0724852
75	0x4005935e	2.0871196
76	0x3f674a58	0.90347815
77	0x3fd78d49	1.6839992
78	0x3fe876a9	1.8161212
79	0x3fc9ec4f	1.5775241
80	0xbf6532e4	-0.8953078
81	0xc0083b4e	-2.1286197
82	0x4002900c	2.040042
83	0xbe91ca34	-0.2847458
84	0x3f4485a1	0.767664
85	0xbff6d9a6	-1.9285171
86	0xbfc26e89	-1.5189983
87	0x4017d081	2.372101
88	0x3f86c637	1.052924
89	0xbf88e7ca	-1.0695736
90	0xbe882879	-0.26593378
91	0x40375c23	2.8649986
92	0xbf848fc4	-1.0356374
93	0x3ff23c7a	1.8924706
94	0x400f75a0	2.2415543
95	0x40293880	2.6440735
96	0xbfc13984	-1.5095677
97	0xbfeb585a	-1.8386338
98	0x400f7ebd	2.2421105
99	0x3fa32a09	1.2747203
100	0x3fb6c4f5	1.4278857
101	0x4007be2e	2.1209826
102	0x3fb4ae90	1.4115772
103	0xbf79b717	-0.97545
104	0xbffdd5e1	-1.9830896
105	0x40135bba	2.3024735
106	0xbe179f5f	-0.14806889
107	0xbf6d003c	-0.9257848
108	0xc05f4162	-3.4883657
109	0xc049c745	-3.1527874
110	0x3fe7c51e	1.810703
111	0x3df70bc6	0.120627925
112	0xc086b6d9	-4.2098203
113	0x3cd26782	0.025684122
114	0xbf57a4a4	-0.84235597
115	0xbfbdf339	-1.4839851
116	0xbfc33ac9	-1.5252315
117	0x3fdaf9ab	1.7107443
118	0xbf7471fc	-0.95486426
119	0xc063b820	-3.558113
120	0x3f09dac5	0.5384944
121	0xbff85e74	-1.9403825
122	0xc0741518	-3.8137875
123	0xbd1ba078	-0.03799483
124	0xbe949e47	-0.29027006
125	0x3f21bc7e	0.6317824
126	0x400e6630	2.224987
127	0x3fccf3c1	1.6011888
128	0xbfb15e42	-1.385689
129	0xbf7cdf0c	-0.9877784
130	0xbf985da5	-1.1903578
131	0x40227f20	2.539009
132	0xbf4f83c9	-0.81060463
133	0xbff3eb67	-1.9056214
134	0xbf50e38e	-0.8159722
135	0x3db7bf17	0.08971994
136	0xbf418dd5	-0.75607044
137	0xbf40760f	-0.75180143
138	0xbdf7cb5f	-0.12099337
139	0x3f940253	1.1563209
140	0x3f6d3e27	0.9267296
141	0x3f5e0a44	0.86734414
142	0x3f3476eb	0.70493954
143	0xbed37e5d	-0.41307345
144	0x3f299810	0.66247654
145	0xbffffc56	-1.9998882
146	0x3f38b429	0.721499
147	0xbfc97480	-1.5738678
148	0x3f065472	0.52472603
149	0xc03a07a4	-2.9067163
150	0xbfad859c	-1.3556399
151	0x3e48997e	0.19589803
152	0x4062ab82	3.541718
153	0xbe803fdf	-0.2504873
154	0x3f052230	0.5200529
155	0xbf5082d7	-0.81449646
156	0xbf82db08	-1.0223093
157	0xbddf3cf3	-0.10900297
158	0x3f7c3c2c	0.98529315
159	0x3fd4b499	1.6617614
160	0xbf73deb1	-0.95261675
161	0xbfaf3f9c	-1.3691287
162	0x3f0bfc69	0.5468202
163	0xbc4fa0bf	-0.012672602
164	0xbdfc6ed8	-0.12325829
165	0xc0275e39	-2.615126
166	0x3f1eb00f	0.61987394
167	0xbf121f5b	-0.57079095
168	0xc0445e93	-3.0682724
169	0x3e15703c	0.14593595
170	0xbf783050	-0.9694872
171	0x4053b704	3.3080454
172	0xbde192f7	-0.110143594
173	0x3f45ab4d	0.7721451
174	0x3f998434	1.199347
175	0x3f922af4	1.1419358
176	0xbfb91ceb	-1.446195
177	0xc008010d	-2.1250641
178	0x3fe5acc8	1.7943354
179	0x3ff125ea	1.8839695
180	0xbf447df6	-0.767547
181	0x3f5d6b35	0.8649171
182	0x3f9dc2d0	1.2325077
183	0xbfe3d666	-1.7799804
184	0xc0361c11	-2.845463
185	0x3fd6d299	1.6783019
186	0x3fd1febc	1.6405864
187	0xbfa477fa	-1.2849114
188	0xbfb34c5a	-1.4007676
189	0xc0466aa0	-3.1002579
190	0x3fc6d230	1.5532894
191	0x3f632d02	0.8874055
192	0xc1031624	-8.192905
193	0x3c28733e	0.010281382
194	0x3ec773ff	0.38955685
195	0xbee61060	-0.44934368
196	0xbd82cc67	-0.06386643
197	0x3fa4ee0a	1.2885144
198	0x3e250d55	0.16118367
199	0xbf7736f0	-0.965682
200	0xc0149923	-2.3218467
201	0xbf146633	-0.57968444
202	0xbffd9f31	-1.9814206
203	0xbf400208	-0.750031
204	0xbfb13a4e	-1.3845918
205	0x4051ae4b	3.276263
206	0x3f82bb65	1.0213438
207	0x3f3b4693	0.7315456
208	0xbf1ca72d	-0.6119259
209	0xbfbce402	-1.4757082
210	0x403471c5	2.819444
211	0xbf175e00	-0.5912781
212	0x3fc017cb	1.5007261
213	0xbff03b77	-1.8768147
214	0xbf483ae6	-0.7821487
215	0x3f883e7a	1.0644066
216	0x3fa61a3c	1.2976756
217	0xbf9509b8	-1.1643591
218	0x3e02f40a	0.12788406
219	0x4029e72e	2.654735
220	0xbf0fa9d6	-0.56118524
221	0x3fde42ff	1.7364196
222	0x400068d4	2.0063982
223	0x3f99f266	1.2027099
224	0xbecb6442	-0.39724928
225	0xc0076a50	-2.1158638
226	0x401698a1	2.3530657
227	0xc051d6de	-3.2787395
228	0x403de370	2.9670067
229	0xbf55308b	-0.83277196
230	0xc00dd9cf	-2.216419
231	0xbeede56a	-0.46464092
232	0x3fe67425	1.8004194
233	0xbfd3cbab	-1.654653
234	0xbfe7c5b6	-1.8107212
235	0x3ed1dd57	0.4098918
236	0x3e9fdc66	0.31222838
237	0x3f983927	1.1892442
238	0xbf1a776d	-0.6033848
239	0x3f3268f3	0.6969139
240	0xbf54eeee	-0.8317708
241	0xbe2a4925	-0.16629465
242	0x3fe3bfb4	1.7792878
243	0xbf8efa45	-1.1170126
244	0xbfd90903	-1.6955875
245	0xbfa5733a	-1.2925789
246	0x3e92192d	0.28534833
247	0xbf4c70df	-0.7985973
248	0xc037d7a2	-2.8725362
249	0xbf89cd95	-1.0765864
250	0xbf30a675	-0.69003993
251	0x4012320a	2.2843041
252	0xbfd8be0a	-1.6932995
253	0xbe844060	-0.25830364
254	0x3ff3da84	1.9051061
255	0x3fa9fa82	1.3279574
