recovery/root/odm/variant/xuanyuan/odm/firmware/water_check.tflite (tflite, 15248 bytes, 18 tensors)

mul_2 f4 [1, 3]
0.01 0.51234 0.01
00000000: 0ad7 233c b728 033f 0ad7 233c

Const_13 f4 [16]
-0.2154208 1.7643682 -0.38972077 0.60842925 -1.0641706 -0.81590474 -0.25635672 -1.1413472
0.620356 -0.44259396 0.27510574 0.36622623 -0.5948954 0.15318155 -0.17345735 0.35806528
00000000: 4597 5cbe d1d6 e13f 7b89 c7be 05c2 1b3f
00000010: be36 88bf 22df 50bf 3041 83be aa17 92bf
00000020: a7cf 1e3f ad9b e2be a9da 8c3e 0182 bb3e
00000030: 114b 18bf a0db 1c3e ce9e 31be 5554 b73e

Const_17 f4 [16]
0.4873242 1.1125787 -0.5268059 -0.03629124 0.4635085 -0.3775884 0.89286983 1.0467414
-0.03277415 0.6218846 -0.3487643 -0.20984393 0.3650076 1.720402 0.38332528 -0.08312431
00000000: 8f82 f93e fb68 8e3f c0dc 06bf 20a6 14bd
00000010: fc50 ed3e 4453 c1be 1e93 643f 9ffb 853f
00000020: 303e 06bd d433 1f3f 3c91 b2be 54e1 56be
00000030: 47e2 ba3e 2236 dc3f 3643 c43e 143d aabd

Const_21 f4 [16]
-1.4758497 -1.4929239 10.133019 7.3709617 10.548725 1.0617625 2.664454 1.8709191
2.8476903 1.4648076 -1.5554904 0.50206345 -1.7384331 1.3533902 -1.3002217 -0.9889977
00000000: a5e8 bcbf 2118 bfbf d920 2241 ebde eb40
00000010: 94c7 2841 d5e7 873f 6a86 2a40 477a ef3f
00000020: 8f40 3640 d17e bb3f 4f1a c7bf 3b87 003f
00000030: fa84 debf e43b ad3f aa6d a6bf f42e 7dbf

Const_24 f4 [3]
0.5718799 -0.6019992 -0.80945164
00000000: b966 123f 9f1c 1abf 3938 4fbf

Const_9 f4 [16]
-0.2082068 0.81258637 0.29800215 -0.5225293 -0.31043875 0.30884463 0.0056309104 0.973287
-0.54111683 0.5958103 -0.02421023 0.13181989 1.0120132 0.6859749 -0.58283544 -0.18034703
00000000: 2a34 55be a905 503f bd93 983e 7bc4 05bf
00000010: d4f1 9ebe e220 9e3e 8083 b83b 5629 793f
00000020: a286 0abf 0687 183f 8854 c6bc cbfb 063e
00000030: a689 813f 0d9c 2f3f b434 15bf e4ac 38be

MatMul f4 [3, 16]
-0.38530928 -0.956065 1.7442042 1.7592113 1.9857252 1.638312 1.7570949 -1.3089848
1.3283411 1.5060652 -0.90203106 1.2133723 -0.84409046 -1.1922495 -0.8172924 -0.7705031
1.1410002 0.7660108 -1.8574693 -1.8812091 -2.374854 -1.6831536 -1.052197 0.95784277
-1.5563627 -1.409433 1.1090705 -1.2517374 0.937617 1.3518186 0.85018146 0.8322029
-1.1690315 -1.3653338 -0.8193736 -0.8379085 -0.68196803 -0.66556185 -0.97339994 -0.9667237
-0.9047161 -0.99376565 -1.2481678 -1.2067046 -1.1721337 -0.8049167 -1.3585371 -1.363242
00000000: 4247 c5be adc0 74bf 1542 df3f d62d e13f
00000010: 3e2c fe3f 35b4 d13f 7ce8 e03f d08c a7bf
00000020: 1507 aa3f bfc6 c03f 82eb 66bf c94f 9b3f
00000030: 5016 58bf a29b 98bf 133a 51bf b13f 45bf
00000040: 4b0c 923f 4919 443f 8ec1 edbf 76cb f0bf
00000050: 9cfd 17c0 9471 d7bf 64ae 86bf 2f35 753f
00000060: e536 c7bf 4d68 b4bf 06f6 8d3f ee38 a0bf
00000070: ab07 703f 6408 ad3f 7ea5 593f 400b 553f
00000080: d3a2 95bf 42c3 aebf 78c2 51bf 2c81 56bf
00000090: 7595 2ebf 4362 2abf bd30 79bf 347b 77bf
000000a0: 799b 67bf 6d67 7ebf f6c3 9fbf 4c75 9abf
000000b0: 7a08 96bf 050f 4ebf 8be4 adbf b77e aebf

convolution f4 [1, 3, 3, 1]
0.046021808 -0.2433378 0.05275726 -0.113835916 0.35499635 -0.11800956 0.111291714 -0.73912287
0.13006867
00000000: 5d81 3c3d 8b2d 79be ff17 583d ce22 e9bd
00000010: 15c2 b53e ffae f1bd e9ec e33d 2837 3dbf
00000020: b930 053e

convolution_1 f4 [16, 1, 1, 1]
2.1293762 1.6721382 2.0894659 2.353243 1.8560685 -1.6665198 -1.4236016 -1.5436827
1.9396533 1.5064735 -1.8367372 2.0113747 -1.7809317 -1.7751563 1.8520484 -2.2170494
00000000: b347 0840 a008 d63f cfb9 0540 899b 1640
00000010: a793 ed3f 8550 d5bf 9438 b6bf 6597 c5bf
00000020: 8f46 f83f 20d4 c03f 341a ebbf 5dba 0040
00000030: 92f5 e3bf 5238 e3bf ec0f ed3f 23e4 0dc0

depthwise f4 [1, 3, 3, 16]
0.17525536 0.100675486 0.17341526 0.005205479 0.19319053 0.09031045 -0.1965026 0.44563797
-0.4718152 0.37694284 -0.20739445 0.1852765 0.16876803 -0.22819819 0.47138605 -0.08797583
-0.31030202 -0.21638107 0.13385953 -0.29770654 -0.13578732 0.32427168 0.02404225 0.1564432
-0.24023083 0.024482954 -0.40224335 -0.23504597 0.03579421 0.46318483 0.083124 -0.17034769
-0.16926466 -0.13492383 0.020773876 0.34103733 -0.38059345 0.3385021 0.052115075 -0.042079877
-0.42592913 0.267422 0.15389585 -0.162696 0.0031150782 -0.1513947 0.237343 -0.17059654
-0.13572717 0.40661404 0.33422214 0.40025017 -0.046245508 -0.21363449 -0.21045882 0.011300372
0.07723512 -0.07003588 0.2124433 -0.27706355 -0.30959055 0.14499621 -0.080060415 -0.32753453
0.15498295 -0.25641552 0.18184301 -0.47212082 -0.050156854 0.14763056 0.16723965 0.27656642
0.089256175 -0.22806105 -0.050827913 -0.19579457 -0.5306493 -0.015847942 0.20457429 -0.6265159
-0.24016358 0.3255174 0.3201743 0.0056218593 0.016964419 -0.1968668 -0.21705966 0.11091334
0.15092094 -0.20990095 0.23281862 -0.05140954 -0.22097607 0.06082631 0.15709451 -0.3384654
-0.07467096 0.08348354 -0.54867536 -0.18381886 0.23502724 0.088390194 0.034825284 -0.14638247
0.08764402 0.13078947 0.0024890418 -0.37795547 -0.3272595 -0.10598285 0.30634165 -0.27812716
-0.56693524 -0.050321493 -0.11694158 0.14351341 0.5058035 -0.062292807 -0.052023493 -0.3363254
0.042385053 -0.112746164 -0.5733463 0.112730786 0.085842334 -0.48517618 0.31741786 -0.41186392
-0.11065721 0.38807666 -0.025976168 -0.27587646 -0.01786137 -0.09265571 0.38896555 0.2990025
0.20572187 0.22238106 -0.13519488 0.28731227 -0.16858332 -0.16246545 0.31602123 -0.2520362
00000000: 2476 333e f32e ce3d c593 313e b992 aa3b
00000010: bdd3 453e aff4 b83d fa37 49be a92a e43e
00000020: c391 f1be a7fe c03e 365f 54be 1fb9 3d3e
00000030: 87d1 2c3e c9ac 69be 8359 f13e ac2c b4bd
00000040: e8df 9ebe 0093 5dbe 7912 093e fe6c 98be
00000050: d50b 0bbe f006 a63e 41f4 c43c a532 203e
00000060: 12ff 75be 7a90 c83c d7f2 cdbe e4af 70be
00000070: f39c 123d 9026 ed3e ea3c aa3d a06f 2ebe
00000080: b753 2dbe 7929 0abe fa2d aa3c 729c ae3e
00000090: 25dd c2be 2650 ad3e 9e76 553d f35b 2cbd
000000a0: 6213 dabe 89eb 883e e096 1d3e c899 26be
000000b0: 5726 4c3b 3607 1bbe 0b0a 733e dcb0 2ebe
000000c0: 10fc 0abe b72f d03e 2a1f ab3e 97ed cc3e
000000d0: ee6b 3dbd 00c3 5abe 8482 57be 3225 393c
000000e0: 722d 9e3d f96e 8fbd bd8a 593e 46db 8dbe
000000f0: a782 9ebe e379 143e b7f6 a3bd 9bb2 a7be
00000100: dab3 1e3e e548 83be 0e35 3a3e d2b9 f1be
00000110: 4671 4dbd 772c 173e df40 2b3e 1d9a 8d3e
00000120: f1cb b63d d688 69be ee30 50bd 5f7e 48be
00000130: a2d8 07bf 8bd3 81bc ec7b 513e 5963 20bf
00000140: 71ed 75be 37aa a63e e3ed a33e 9337 b83b
00000150: f7f8 8a3c 7397 49be e344 5ebe 8826 e33d
00000160: 058b 1a3e 46f0 56be 0168 6e3e cf92 52bd
00000170: 8d47 62be 0225 793d 62dd 203e 564b adbe
00000180: 17ed 98bd 6bf9 aa3d fd75 0cbf 033b 3cbe
00000190: fbaa 703e eb05 b53d f5a4 0e3d 49e5 15be
000001a0: b57e b33d aded 053e 311f 233b 6183 c1be
000001b0: 8f8e a7be 890d d9bd d0d8 9c3e af66 8ebe
000001c0: ab22 11bf e91d 4ebd 117f efbd 2ef5 123e
000001d0: 577c 013f be26 7fbd 9616 55bd d832 acbe
000001e0: f39b 2d3d 76e7 e6bd d3c6 12bf 66df e63d
000001f0: 1bce af3d 0369 f8be 9884 a23e d4df d2be
00000200: 3fa0 e2bd fcb1 c63e f9cb d4bc ae3f 8dbe
00000210: 0252 92bc 47c2 bdbd 7e26 c73e db16 993e
00000220: c1a8 523e dcb7 633e 8770 0abe 981a 933e
00000230: 1ba1 2cbe 585d 26be 89cd a13e e40a 81be

convolution_2 f4 [16, 1, 1, 16]
-0.037052985 0.22411495 -0.26492107 0.35035282 0.26872003 -0.09009434 0.20482942 0.023807365
0.8862419 0.1744764 0.13867205 -0.50885886 0.38416186 0.060047984 -0.20705537 0.1471669
0.19594324 -0.33712775 -0.4300101 0.66809386 -0.39096686 0.13165076 0.06430962 -0.027530223
-0.4885039 -0.5801073 -0.08620361 0.36265457 -0.13211745 -0.29461658 0.16305567 0.35522318
-0.25986016 0.13968636 -0.17640984 -0.05784955 0.38151798 0.040240053 -0.055159844 0.29155833
-0.3118501 -0.0519926 0.093427256 -0.052544456 -0.010241559 -0.026805336 0.086832754 -0.14144251
0.15746686 -0.19954023 -0.23427616 -0.08922576 0.07846231 -0.11494043 -0.30529514 0.23721552
0.2752783 0.2822535 0.50811654 0.27631515 -0.068801954 0.3221288 -0.3649912 0.08021369
-0.3707644 0.39346442 -0.11927234 -0.2480513 0.00767617 0.5476007 0.049458608 0.40819228
-0.81343544 -0.24220759 0.08826636 -0.5070367 -0.5478502 -0.2151208 0.16945672 0.65435493
-0.13127868 0.42295548 -0.004346616 -0.10715068 0.17903496 0.32618535 -0.005884954 0.25843468
0.022331584 0.14845993 0.21458192 -0.29429397 0.24575631 -0.09338044 0.32052928 0.3676973
0.5364564 0.5997882 0.48190883 -0.3867597 0.3835513 0.25649604 -0.075037666 -0.83896166
0.17332748 0.47859558 0.13642552 0.2807969 0.071984485 0.045106933 -0.7039414 -0.19693567
-0.37449682 0.057406753 0.12930316 0.07773854 0.2430396 -0.0066357683 0.061409708 0.213651
0.088012785 0.1384695 0.38985023 -0.04016126 -0.4000104 -0.35686833 -0.17630002 0.65878165
-0.0013134278 -0.021263797 -0.0565289 0.14048836 -0.1377779 -0.3183968 0.008817726 -0.23033299
-0.44011113 -0.077510804 0.10145244 0.1423231 0.27574787 0.018447591 0.30184776 0.27994618
-0.23828204 -0.06476594 -0.13772292 0.60657257 0.6280172 -0.3316539 -0.25786483 -0.046033196
-0.29381272 -0.08337425 0.2875191 0.5300444 -0.038751043 -0.7179407 0.3872663 0.39148316
0.34532958 0.30192092 -0.58435583 -0.23933838 -0.4782605 -0.5974048 0.25007883 0.07013862
-0.032425396 0.69736606 0.60648525 0.2530611 -0.5878939 -0.08709782 -0.17707533 0.15060414
0.0015832362 0.470426 -0.61169565 0.13389005 -0.6801355 0.26987427 -1.0397837 0.23806185
0.02754725 -0.19578913 -0.14514521 0.78114617 0.20482588 0.10139681 0.05462384 -0.28815418
0.3163673 0.2148876 0.08739556 -0.4607054 -0.25570306 0.21043368 0.026949238 0.48072144
-0.10389669 0.357351 0.2697658 -0.37260744 -0.60436946 -0.005813625 0.037930142 0.82540435
0.45283622 -0.038958233 -0.20484063 0.3041271 -0.081794515 0.17310324 -0.06997755 0.016080804
0.12539332 -0.027023736 -0.038888138 0.3638396 -0.14897521 -0.00038987419 -0.16561316 -0.14591831
-0.266992 -0.6127541 -0.0041121035 -0.25496235 0.17119169 -0.17250156 -0.21481152 0.15925936
-0.19488972 0.37756217 0.49701598 0.18097414 -0.123606734 -0.37868348 0.41806826 0.43706438
0.27035347 0.15748891 -1.0149298 -0.29808804 0.15672117 -0.21194045 -0.013086719 -0.0373765
0.099352896 0.8981838 -0.03130324 0.105994664 -0.06698043 0.05645495 0.32518908 0.05459025
00000000: dfc4 17bd 647e 653e bca3 87be 7261 b33e
00000010: ac95 893e 6283 b8bd cebe 513e aa07 c33c
00000020: c0e0 623f f1a9 323e 0c00 0e3e 9344 02bf
00000030: ddb0 c43e e0f4 753d 5306 54be ebb2 163e
00000040: 58a5 483e 029c acbe 492a dcbe 3308 2b3f
00000050: cf2c c8be 75cf 063e c3b4 833d 1087 e1bc
00000060: 2f1d fabe e981 14bf 858b b0bd dcad b93e
00000070: cc49 07be fcd7 96be 11f8 263e d0df b53e
00000080: 640c 85be f109 0f3e c8a4 34be a6f3 6cbd
00000090: 5356 c33e c1d2 243d 4aef 61bd 2247 953e
000000a0: d1aa 9fbe 31f6 54bd ca56 bf3d db38 57bd
000000b0: 36cc 27bc dd96 dbbc 5fd5 b13d 4ed6 10be
000000c0: fe3e 213e 4654 4cbe 17e6 6fbe ffbb b6bd
000000d0: d9b0 a03d e365 ebbd a54f 9cbe a0e8 723e
000000e0: 47f1 8c3e 8883 903e ed13 023f 2e79 8d3e
000000f0: 0ae8 8cbd 11ee a43e 20e0 babe 1347 a43d
00000100: d5d4 bdbe 2b74 c93e 0e45 f4bd 2901 7ebe
00000110: 6288 fb3b 8f2f 0c3f 1c95 4a3d 94fe d03e
00000120: 4e3d 50bf 4405 78be fec4 b43d 28cd 01bf
00000130: e93f 0cbf a148 5cbe 1086 2d3e ce83 273f
00000140: eb6d 06be 9f8d d83e 0f6e 8ebb d171 dbbd
00000150: f154 373e c401 a73e 92d6 c0bb 8d51 843e
00000160: baf0 b63c e105 183e 5dbb 5b3e b3ad 96be
00000170: 8ba7 7b3e 3e3e bfbd 6a1c a43e d242 bc3e
00000180: 3555 093f b88b 193f c1bc f63e 5e05 c6be
00000190: d660 c43e 7353 833e 59ad 99bd 31c6 56bf
000001a0: c27c 313e 7b0a f53e 22b3 0b3e 9cc4 8f3e
000001b0: 9a6c 933d 0cc2 383d 8135 34bf 81a9 49be
000001c0: 0cbe bfbe 5823 6b3d 0c68 043e 6235 9f3d
000001d0: 5fdf 783e dc70 d9bb bf88 7b3d 54c7 5a3e
000001e0: 0c40 b43d f3ca 0d3e 739a c73e 2280 24bd
000001f0: 2ace ccbe 72b7 b6be fe87 34be eaa5 283f
00000200: 5327 acba 6a31 aebc d98a 67bd 2edc 0f3e
00000210: a615 0dbe e804 a3be 3978 103c 69dc 6bbe
00000220: 3f56 e1be fcbd 9ebd 4cc6 cf3d 26bd 113e
00000230: d32e 8d3e 671f 973c ca8b 9a3e 1b55 8f3e
00000240: 3500 74be 01a4 84bd 3d07 0dbe 5748 1b3f
00000250: bcc5 203f 8ace a9be dc06 84be 4e8d 3cbd
00000260: 9f6e 96be 1ec0 aabd b435 933e fdb0 073f
00000270: 6ab9 1ebd f6ca 37bf c547 c63e 7b70 c83e
00000280: 0acf b03e 6195 9a3e 5898 15bf 1f15 75be
00000290: 8fde f4be 85ef 18bf 550a 803e d6a4 8f3d
000002a0: 7ed0 04bd 9586 323f 9e42 1b3f 3991 813e
000002b0: 3780 16bf 5860 b2bd 3c53 35be f937 1a3e
000002c0: 9784 cf3a addb f03e 1698 1cbf 791a 093e
000002d0: 5c1d 2ebf f62c 8a3e a217 85bf 7cc6 733e
000002e0: c5aa e13c f27c 48be f2a0 14be 32f9 473f
000002f0: e0bd 513e 21a9 cf3d 3fbd 5f3d f288 93be
00000300: e5fa a13e 7f0b 5c3e 72fc b23d 94e1 ebbe
00000310: 83eb 82be ed7b 573e a6c4 dc3c 1f21 f63e
00000320: cac7 d4bd b6f6 b63e be1e 8a3e 67c6 bebe
00000330: f5b7 1abf 3980 bebb a35c 1b3d b34d 533f
00000340: 26da e73e ab92 1fbd bec1 51be 8cb6 9b3e
00000350: e283 a7bd fa41 313e 6450 8fbd e4bb 833c
00000360: 1b67 003e e260 ddbc 2b49 1fbd 2f49 ba3e
00000370: f58c 18be 0768 ccb9 7f96 29be 9c6b 15be
00000380: 2db3 88be 74dd 1cbf d3be 86bb 6d8a 82be
00000390: e04c 2f3e 40a4 30be 8df7 5bbe e314 233e
000003a0: 2c91 47be d44f c13e e178 fe3e 4951 393e
000003b0: 8725 fdbd cde2 c1be 0b0d d63e e7c6 df3e
000003c0: c56b 8a3e c644 213e 38e9 81bf ff9e 98be
000003d0: 847b 203e eb06 59be ae69 56bc 1a18 19bd
000003e0: 8879 cb3d 60ef 653f d437 00bd bb13 d93d
000003f0: 092d 89bd 4e3d 673d 2f7f a63e 079a 5f3d

depthwise_1 f4 [1, 3, 3, 16]
-0.044417057 0.1222148 -0.14136912 0.030146912 -0.25980625 -0.469281 -0.2750046 0.69242555
0.01529403 0.1067501 0.15654954 -0.35083348 0.15643652 -0.26750243 0.05476667 -0.32069844
0.30741042 -0.0048521757 0.3335929 0.37228474 0.16472001 -0.2094433 -0.018478116 0.66434306
-0.21726905 -0.010362038 -0.14424999 -0.15883905 0.3402239 -0.20703445 0.3388981 -0.35946462
-0.14219077 0.039688885 0.055015307 0.3127263 -0.15499355 -0.55831385 -0.17997348 0.73252976
-0.48870623 -0.27728558 0.43761328 0.25676355 0.30515784 -0.052658718 0.16077885 -0.10287121
0.4582069 0.45200503 0.04320584 0.20021425 -0.3105534 -0.27806 0.20754907 0.58624715
-0.3323563 -0.18390931 0.0972145 0.031419862 0.16287816 -0.086851336 0.24538642 -0.04627149
0.31566694 0.0041831066 0.25914353 0.10814681 0.037574735 -0.19056743 -0.21167862 0.5122569
-0.890822 -0.35033348 0.17346287 0.12844905 0.42852437 0.026486287 0.3054458 -0.06130992
-0.12886217 0.5541858 0.087420665 0.061882015 -0.3641856 -0.14732465 0.047998037 0.43056464
-0.08762005 -0.63090014 0.10172602 0.13939211 0.46027532 -0.24995473 0.29726887 -0.19101101
-0.35318294 0.039293915 -0.24969453 0.1989211 -0.39699763 -0.22087283 -0.27712727 0.22049437
-0.16540538 0.08243221 0.06970526 -0.14551869 0.12660626 -0.33826745 0.041612916 -0.21895812
-0.22856162 -0.04330308 -0.18725458 0.36774862 0.01814937 -0.12417489 -0.22878842 0.124804646
-0.23255894 -0.24877368 -0.26245102 -0.24175203 0.121377066 -0.17116453 0.4619494 0.101680994
-0.23596342 0.05744079 -0.40120667 0.24723038 -0.41953617 -0.105059184 -0.26521683 0.06043062
-0.31513858 -0.396976 0.2313401 0.28317806 0.3612807 0.02477668 0.15591428 0.011482049
00000000: a9ee 35bd c14b fa3d 11c3 10be a8f6 f63c
00000010: 5305 85be 9945 f0be 67cd 8cbe cd42 313f
00000020: d093 7a3c cc9f da3d 864e 203e 72a0 b3be
00000030: e530 203e 14f6 88be 0453 603d 9632 a4be
00000040: e664 9d3e 00ff 9ebb b0cc aa3e 1b9c be3e
00000050: 5dac 283e 4e78 56be 6b5f 97bc 6312 2a3f
00000060: c77b 5ebe 8ac5 29bc 45b6 13be b4a6 22be
00000070: d431 ae3e d700 54be 0d84 ad3e bf0b b8be
00000080: 759a 11be d090 223d bb57 613d a91d a03e
00000090: a1b6 1ebe a8ed 0ebf f84a 38be 1287 3b3f
000000a0: b437 fabe 60f8 8dbe d90e e03e 8376 833e
000000b0: a63d 9c3e abb0 57bd 36a3 243e 24ae d2bd
000000c0: 189a ea3e 346d e73e 9bf8 303d f704 4d3e
000000d0: db00 9fbe e15d 8ebe be87 543e 4b14 163f
000000e0: 9b2a aabe b952 3cbe 6518 c73d 1db2 003d
000000f0: 88c9 263e 1ddf b1bd 9446 7b3e 2d87 3dbd
00000100: 199f a13e 7112 893b 76ae 843e 137c dd3d
00000110: f7e7 193d 1c24 43be 48c2 58be 4523 033f
00000120: e90c 64bf e95e b3be 40a0 313e 2688 033e
00000130: 8c67 db3e c5f9 d83c 6463 9c3e 1c20 7bbd
00000140: 72f4 03be 1fdf 0d3f 9b09 b33d ff77 7d3d
00000150: 8976 babe 46dc 16be 9799 443d f872 dc3e
00000160: 2472 b3bd ac82 21bf bb55 d03d cebc 0e3e
00000170: 35a9 eb3e 22f4 7fbe a033 983e 6498 43be
00000180: 65d4 b4be a8f2 203d ecaf 7fbe f9b1 4b3e
00000190: 4643 cbbe 7d2c 62be a0e3 8dbe 47c9 613e
000001a0: 0760 29be 38d2 a83d a2c1 8e3d da02 15be
000001b0: 12a5 013e 6431 adbe 4e72 2a3d 8f36 60be
000001c0: 0f0c 6abe 925e 31bd aabf 3fbe 8c49 bc3e
000001d0: fdad 943c 684f febd 8347 6abe 9499 ff3d
000001e0: ee23 6ebe 87be 7ebe fb5f 86be d88d 77be
000001f0: 8a94 f83d c145 2fbe a284 ec3e 203e d03d
00000200: 65a0 71be 0947 6b3d f66a cdbe f629 7d3e
00000210: 72cd d6be 4529 d7bd 80ca 87be 1986 773d
00000220: d859 a1be 7040 cbbe 6be4 6c3e b7fc 903e
00000230: c9f9 b83e 77f8 ca3c fea7 1f3e 341f 3c3c

convolution_3 f4 [16, 1, 1, 16]
0.81010926 -0.5277871 0.1803153 0.6138525 0.42566207 -0.21033326 -0.428518 -0.30398926
-0.27566427 0.4782294 -0.24936613 -0.17132208 -0.60637796 0.040873893 0.25720724 0.13257343
0.23412465 0.408376 -0.46833605 -1.5060005 0.29876596 -0.2797708 0.18224604 -0.32444936
0.8605762 -0.122426726 -0.14195298 -0.026406508 -0.51023877 1.1738236 0.010545403 -0.26971582
0.4342799 0.43899682 0.39924225 0.10268985 0.3036884 0.0203884 -0.02982324 -0.023712164
-0.4535223 -0.07276985 0.16661488 0.43733004 0.44686335 0.33637074 -0.116552636 0.14995055
-0.16145961 0.043149997 -0.41684666 0.73767847 0.016244695 -0.17013416 -0.4932014 -0.32752702
1.1678096 0.6439 -0.10885156 -0.09470791 -0.52986115 0.42108616 0.332459 -0.0029366312
-0.3705817 -0.21999605 -0.04496053 0.49281755 0.5137028 0.2832315 0.13801761 -0.6707709
0.52554095 -0.00854448 0.05125627 -0.08840597 0.045029946 0.95228374 0.7482057 -0.31027588
-0.037154835 0.056943756 -0.4474007 0.3198635 -0.3275647 0.10946551 -0.04580562 -0.47564325
0.01914083 -0.6533683 -0.033073533 0.09245175 0.2668814 -0.2097814 0.03300577 -0.013236468
-0.55306536 -0.43040776 0.053700693 0.27195856 0.36529887 -0.23884912 -0.20501381 -0.49546543
0.7324592 0.06129829 0.26970783 0.0034458514 -0.08024493 0.30277324 0.32724467 0.6428485
-0.01572354 -0.3973949 -0.8021495 0.19224796 0.1279467 0.5845143 0.47953764 -0.17496297
-0.3320186 -0.33511606 -0.020019174 0.5951797 0.12540995 -0.05575082 0.19404493 0.5637057
-0.1926468 -0.022016708 -0.06188451 0.12719987 0.036901508 0.81768477 0.050627228 0.5224986
-0.45008996 -0.10772764 0.06367321 0.060850568 0.46888125 0.14159377 -1.0110381 0.04843942
-0.021352652 0.79888505 0.61774474 -0.5453418 -0.008544384 0.0065307524 0.89067215 -0.29011092
-0.14060168 0.11718232 -0.36321318 0.2969912 -0.06500194 0.8719049 0.11841749 0.3238359
-0.019487217 0.8672711 -0.16902414 -0.47575733 0.5952157 0.027103389 -0.0780933 0.45018288
0.040974684 -0.2114207 -0.5128347 -0.19768444 0.007198925 0.19553967 0.0074064736 -0.17485508
0.1077163 0.3503565 -0.19840275 0.1582307 0.26524678 0.44749722 0.24799602 0.42928374
-0.3114772 0.4209717 -0.03300446 0.36267585 -0.19500959 0.1535932 -0.14651173 -0.24304336
-0.78547925 -0.19075564 -0.23449004 -0.44824544 0.58446455 0.82949185 0.36678758 0.26330942
-0.06121716 -0.35958257 -0.08347767 -0.81970555 0.9749563 -0.27934495 -0.6900997 -0.6277922
-0.5072005 -0.8130082 0.21090794 0.0060511837 1.1243507 -0.66231525 -0.5233835 -0.6243552
-0.5481699 -0.13852237 -0.014594294 -0.21760951 -0.92753786 0.30691242 0.5943589 -0.116853476
-0.023624526 -0.087331735 0.17108297 0.04599236 0.06873472 0.040650606 -0.32933122 -0.9509694
-0.03365745 0.57637274 0.54764366 -0.19598338 -0.33392274 0.23423243 0.06373125 -0.02347658
0.3168744 0.5739186 0.5666096 0.46852213 0.16240594 -0.21617731 0.11949767 -0.3781761
0.59173816 0.31803715 -0.037815627 -0.10312473 -0.07317072 -0.11805887 0.006591189 0.087179
00000000: 5263 4f3f 0e1d 07bf 93a4 383e 7025 1d3f
00000010: 61f0 d93e 9a61 57be b666 dbbe 7ba4 9bbe
00000020: de23 8dbe 7cda f43e d659 7fbe 0e6f 2fbe
00000030: 963b 1bbf 626b 273d abb0 833e 54c1 073e
00000040: 5fbe 6f3e a916 d13e bec9 efbe a0c4 c0bf
00000050: daf7 983e 1e3e 8fbe b59e 3a3e 3a1e a6be
00000060: b94e 5c3f ddba fabd 1f5c 11be 7652 d8bc
00000070: 029f 02bf da3f 963f a0c6 2c3c 3118 8abe
00000080: ef59 de3e 31c4 e03e 7b69 cc3e 0e4f d23d
00000090: 0c7d 9b3e 9305 a73c de4f f4bc 0340 c2bc
000000a0: 1334 e8be 5c08 95bd 179d 2a3e b9e9 df3e
000000b0: 46cb e43e c938 ac3e 26b3 eebd a38c 193e
000000c0: ab55 25be 0dbe 303d ed6c d5be 7fd8 3c3f
000000d0: 9813 853c a637 2ebe e584 fcbe 9fb1 a7be
000000e0: c97a 953f a1d6 243f 91ed debd 39f6 c1bd
000000f0: fba4 07bf 9b98 d73e 1138 aa3e 7f74 40bb
00000100: e2bc bdbe a546 61be 8828 38bd 9552 fc3e
00000110: 0782 033f b803 913e 7d54 0d3e a4b7 2bbf
00000120: da89 063f 26fe 0bbc 18f2 513d 300e b5bd
00000130: 5271 383d dec8 733f 698a 3f3f 7bdc 9ebe
00000140: ab2f 18bd db3d 693d b411 e5be 26c5 a33e
00000150: 8fb6 a7be 742f e03d ac9e 3bbd 8387 f3be
00000160: 3bcd 9c3c 2543 27bf 1d78 07bd 5857 bd3d
00000170: aea4 883e efd0 56be 0f31 073d c5dd 58bc
00000180: b195 0dbf 685e dcbe 42f5 5b3d 273e 8b3e
00000190: 7408 bb3e dd94 74be 24ef 51be a5ad fdbe
000001a0: 7282 3b3f ea13 7b3d 2517 8a3e cbd3 613b
000001b0: 7457 a4bd 1805 9b3e 9d8c a73e b891 243f
000001c0: a7ce 80bc 5877 cbbe ab59 4dbf a6dc 443e
000001d0: 7604 033e bba2 153f f585 f53e 7e29 33be
000001e0: 58fe a9be 5594 abbe 40ff a3bc b25d 183f
000001f0: 776b 003e f95a 64bd b7b3 463e 044f 103f
00000200: 3445 45be 625c b4bc 9d7a 7dbd af40 023e
00000210: 0926 173d ca53 513f 7f5e 4f3d 78c2 053f
00000220: 3172 e6be 4fa0 dcbd 1a67 823d 723e 793d
00000230: 3411 f03e f5fd 103e b269 81bf 6a68 463d
00000240: c2eb aebc bb83 4c3f 8524 1e3f 859b 0bbf
00000250: befd 0bbc ecff d53b 1703 643f 6b89 94be
00000260: e3f9 0fbe 49fd ef3d 14f7 b9be 3b0f 983e
00000270: bd1f 85bd 2935 5f3f de84 f23d d2cd a53e
00000280: a8a3 9fbc 7b05 5e3f aa14 2dbe 7796 f3be
00000290: 0e60 183f ed07 de3c 61ef 9fbd 5f7e e63e
000002a0: 12d5 273d ab7e 58be 2349 03bf ca6d 4abe
000002b0: f6e4 eb3b 8d3b 483e 01b2 f23b 360d 33be
000002c0: 5d9a dc3d ed61 b33e 172a 4bbe 3b07 223e
000002d0: 6dce 873e 5b1e e53e abf2 7d3e 14cb db3e
000002e0: f179 9fbe 9a89 d73e af2f 07bd a6b0 b93e
000002f0: 98b0 47be 8947 1d3e 2c07 16be 5ce0 78be
00000300: 2b15 49bf 7255 43be 281e 70be 6d80 e5be
00000310: 789f 153f 9459 543f 95cb bb3e 7ed0 863e
00000320: d8be 7abd 351b b8be 57f6 aabd 39d8 51bf
00000330: bc96 793f 4d06 8fbe 60aa 30bf fdb6 20bf
00000340: e4d7 01bf 4e21 50bf 40f8 573e 0249 c63b
00000350: b9ea 8f3f 7e8d 29bf 76fc 05bf bed5 1fbf
00000360: dd54 0cbf cfd8 0dbe e81c 6fbc 07d5 5ebe
00000370: 1f73 6dbf a023 9d3e e827 183f e050 efbd
00000380: 3988 c1bc fbda b2bd 6030 2f3e 7c62 3c3d
00000390: cac4 8c3d 4081 263d 1a9e a8be bb72 73bf
000003a0: 65dc 09bd 2a8d 133f 6032 0c3f deaf 48be
000003b0: ecf7 aabe a0da 6f3e 8885 823d f551 c0bc
000003c0: 5d3d a23e 54ec 123f 540d 113f 22e2 ef3e
000003d0: be4d 263e 965d 5dbe 32bb f43d 4ca0 c1be
000003e0: 277c 173f c4d5 a23e 8fe4 1abd 0f33 d3bd
000003f0: 88da 95bd d9c8 f1bd e7fa d73b e78a b23d

depthwise_2 f4 [1, 3, 3, 16]
-0.38209704 0.29392233 -0.3209116 -0.22039804 -0.03118792 0.019689197 -0.04605371 0.14149351
0.14481209 0.026515266 0.12270783 0.278192 0.14379315 -0.25533685 -0.09316776 -0.16780628
0.22491072 -0.54855245 0.09546674 0.011762023 0.27134404 -0.2863265 -0.35050753 0.070747845
0.27389744 0.5184065 0.24486826 -0.3140584 -0.2839571 0.14055014 -0.36646342 0.24047276
0.19764374 0.26008114 -0.45401743 -0.10583808 0.13461195 -0.34711277 0.08283235 -0.5118265
0.14098918 0.048592575 0.37900594 -0.27047256 0.06576453 -0.092195235 -0.0915091 0.06615931
0.22066078 0.1866905 0.0115857795 -0.17280503 0.28885287 -0.21160528 -0.01523435 -0.27670142
0.2252151 0.046171267 0.231435 -0.19722958 0.48937196 -0.03664184 -0.17464703 -0.20458733
0.4000865 -0.06798373 0.1945251 0.59121513 0.5734573 -0.14818929 -0.5667503 0.37455326
0.3882006 0.030086648 0.29847822 -0.06769358 -0.3386614 0.4900103 -0.45633137 -0.07811047
0.42424947 0.16482052 -0.5544426 -0.12704766 0.0872068 -0.21134984 -0.042553484 -0.3564699
0.4249607 -0.054592866 0.12144267 -0.31223786 -0.20420454 -0.2449044 -0.009885616 -0.16394179
-0.17206743 -0.04184422 0.12361526 -0.22262377 0.19368036 0.34696 0.26106158 -0.22733103
0.027091047 0.19877829 -0.12634233 0.045800395 0.42130017 -0.30262598 -0.072220854 -0.050125897
0.05577493 -0.09952593 -0.039546624 0.2956055 0.5851752 0.057609763 -0.29230353 -0.096748255
0.42684305 0.026148325 0.28846416 -0.46662137 -0.3729873 0.09696144 -0.2913162 -0.0919552
0.12762061 0.29038864 -0.042539082 -0.03850204 0.31301194 0.22745289 -0.02605301 -0.050443944
0.12649456 0.00643278 0.18931209 -0.5312444 0.01839121 -0.13936603 -0.073610805 -0.25529703
00000000: 39a2 c3be fd7c 963e 864e a4be 06b0 61be
00000010: cf7d ffbc 3d4b a13c d1a2 3cbd ade3 103e
00000020: 9f49 143e 8b36 d93c 3e4e fb3d 2f6f 8e3e
00000030: 833e 133e 83bb 82be bdce bebd 69d5 2bbe
00000040: ff4e 663e ef6d 0cbf 1184 c33d 80b5 403c
00000050: 9bed 8a3e 6399 92be b975 b3be 3fe4 903d
00000060: 493c 8c3e 4ab6 043f bfbe 7a3e 43cc a0be
00000070: d362 91be 60ec 0f3e 18a1 bbbe 7e3e 763e
00000080: 1f63 4a3e 5b29 853e f974 e8be a3c1 d8bd
00000090: b7d7 093e c4b8 b1be 02a4 a93d 1007 03bf
000000a0: 785f 103e 0209 473d 110d c23e 617b 8abe
000000b0: 8eaf 863d dbd0 bcbd 1f69 bbbd 887e 873d
000000c0: e6f4 613e cb2b 3f3e 48d2 3d3c cdf3 30be
000000d0: 86e4 933e 0eaf 58be 7f99 79bc cfab 8dbe
000000e0: ca9e 663e 151e 3d3d 4cfd 6c3e 8df6 49be
000000f0: f68e fa3e c115 16bd acd6 32be 577f 51be
00000100: 23d8 cc3e 0e3b 8bbd 9631 473e e059 173f
00000110: 19ce 123f efbe 17be 8c16 11bf 72c5 bf3e
00000120: 3bc2 c63e 4678 f63c 23d2 983e efa2 8abd
00000130: 0765 adbe a1e2 fa3e 44a4 e9be 62f8 9fbd
00000140: 3a37 d93e b6c6 283e f3ef 0dbf c818 02be
00000150: 7b99 b23d 186c 58be 904c 2ebd 3983 b6be
00000160: 7394 d93e c59c 5fbd efb6 f83d a4dd 9fbe
00000170: ff1a 51be 38c8 7abe 47f7 21bc 5be0 27be
00000180: 7232 30be d864 2bbd ff29 fd3d 7cf7 63be
00000190: 2554 463e bea4 b13e dda9 853e 77c9 68be
000001a0: 0bee dd3c 898c 4b3e e25f 01be 3299 3b3d
000001b0: a8b4 d73e cbf1 9abe 87e8 93bd d050 4dbd
000001c0: 4174 643d 40d4 cbbd a4fb 21bd 9b59 973e
000001d0: 0bce 153f 37f8 6b3d cfa8 95be f323 c6bd
000001e0: 2c8b da3e 0335 d63c 93b1 933e ffe8 eebe
000001f0: 31f8 bebe b893 c63d 6627 95be 0253 bcbd
00000200: faae 023e d2ad 943e 763d 2ebd 51b4 1dbd
00000210: 1a43 a03e 69e9 683e 1f6d d5bc 4f9e 4ebd
00000220: ca87 013e 12ca d23b 07db 413e a2ff 07bf
00000230: 2aa9 963c f8b5 0ebe 43c1 96bd 4bb6 82be

convolution_4 f4 [16, 1, 1, 16]
0.26083803 -2.6041481 -2.8382318 -0.1959953 3.9147108 1.9120855 -4.795176 -1.4134884
-2.209641 -2.8608935 -0.6408218 -0.3431547 -0.7332729 -1.4786286 -0.96659106 0.13385524
0.5826131 -2.091727 -2.5220096 -0.26652032 3.042332 1.6162388 -2.7512968 -1.128084
-1.9348005 -1.963421 -0.65796906 0.32177234 -0.41949004 -0.8147325 -1.66921 -0.56780803
0.8568881 -0.10205366 2.9809306 -3.8808272 -5.66196 1.1856477 4.788284 3.7851455
1.4914602 1.9657521 -2.4752607 -3.9542193 0.7159983 -1.8675655 10.177858 -3.1758075
-1.3576515 -1.6616646 2.3471196 -4.481571 -3.6079159 -0.41802093 7.0834885 1.1248296
3.152546 2.023575 -1.0943366 -3.286409 -0.3481841 -1.0849288 5.086142 -1.7111524
-3.3767846 -3.1057422 0.98972046 -8.527798 -6.0295014 -0.8182093 2.070191 0.3356943
6.1572213 -1.5656719 -3.1168942 -4.6596923 -0.8295847 -3.5780263 4.7536345 1.5621346
-5.8827753 -2.558456 2.2351744 -2.8633947 -0.80881506 -3.6153271 1.8231267 1.1336641
2.7264886 1.2571495 0.7665314 -4.6602244 -4.320687 -1.1447909 -0.47996446 -3.4200096
-1.2758487 1.9422255 4.237033 0.42246288 3.027774 -2.8646312 0.086693466 5.5171146
-2.7386382 3.6000605 0.126532 3.5001893 -6.2713656 -4.315458 -1.4650949 -1.3072848
0.8632235 -5.271219 -1.9668818 -0.1891655 1.9566529 1.8369541 -3.5192952 -2.3573825
-3.156941 -5.754506 -3.8121018 0.08290146 -1.8987747 -1.3245224 -0.8692796 0.13918127
-3.1668415 -0.45269543 2.8432715 -1.4326556 -0.2181051 -2.0674522 1.5340807 2.9874446
1.2478788 1.5536237 0.6903572 -1.2365861 -3.260475 -3.4930983 0.3943827 -0.4581883
-0.9500805 -0.4813666 0.11571222 -2.9458804 1.1756866 -1.005537 2.122606 -1.4426187
0.5133655 0.8323696 -0.43927446 -0.9760389 -6.300176 -1.2438792 1.0259827 -5.3388853
-1.4482483 -0.84116304 -3.8502905 -0.46325108 14.228915 0.2838603 -3.3713655 1.7748902
-5.845206 0.8076038 1.8427538 3.4133651 -1.684847 -1.7046117 5.617194 3.6989377
-1.2519083 -0.1518217 -0.333117 -3.1017222 0.370522 0.3672007 0.41185898 -1.9282652
3.9931154 1.4080919 -1.1007401 -5.3491077 -2.9225824 3.5514743 0.20003784 -1.5600848
0.24524747 -2.4273093 -2.3930445 -0.021467598 2.262273 1.6558611 -3.9761295 -1.3737862
-1.8265653 -2.0686934 -0.56054884 0.17048292 -0.38522956 -1.1073492 -2.1004837 0.19059522
1.2230762 -4.1322803 -2.4413238 0.9009844 -4.5083175 1.5545745 -3.8893847 -2.8317714
0.07998 -4.073004 -5.966345 -0.2076144 -0.9286465 -1.5698551 -3.3153574 -1.0147499
0.72384596 -2.3222694 -1.8502417 -0.11158621 3.4580069 1.6394094 -3.5252938 -1.545024
-1.104449 -1.9093087 -1.2048179 0.8312359 -0.6600837 -1.0868284 -0.69939554 -1.0984837
0.18874155 -2.3658957 -1.1131457 -0.063003294 1.7518585 1.5569712 -4.471066 -1.5641748
-1.1303372 -2.06705 -1.1078447 -0.45121163 -0.4866455 -1.1083637 -1.4517154 0.6184981
00000000: 908c 853e 5daa 26c0 97a5 35c0 feb2 48be
00000010: 9f8a 7a40 38bf f43f 1572 99c0 30ed b4bf
00000020: c26a 0dc0 e118 37c0 e60c 24bf f9b1 afbe
00000030: c6b7 3bbf b443 bdbf 8372 77bf 5911 093e
00000040: 2226 153f dbde 05c0 9b68 21c0 5a75 88be
00000050: 91b5 4240 eae0 ce3f 3f15 30c0 0e65 90bf
00000060: 8ba7 f7bf 6151 fbbf a970 28bf 58bf a43e
00000070: 66c7 d6be 4f92 50bf aca8 d5bf de5b 11bf
00000080: 055d 5b3f 8201 d1bd 91c7 3e40 795f 78c0
00000090: c72e b5c0 4ec3 973f 9f39 9940 d33f 7240
000000a0: 2be8 be3f c49d fb3f ac6a 1ec0 ee11 7dc0
000000b0: aa4b 373f 630c efbf 82d8 2241 6e40 4bc0
000000c0: 86c7 adbf 6db1 d4bf 3537 1640 0869 8fc0
000000d0: 18e8 66c0 d706 d6be f0ab e240 6bfa 8f3f
000000e0: 50c3 4940 4182 0140 3913 8cbf 8654 52c0
000000f0: 3045 b2be f2de 8abf adc1 a240 0b07 dbbf
00000100: 3d1d 58c0 7bc4 46c0 525e 7d3f dc71 08c1
00000110: adf1 c0c0 2a76 51bf 027e 0440 20e0 ab3e
00000120: f507 c540 f067 c8bf 327b 47c0 331c 95c0
00000130: aa5f 54bf 62fe 64c0 c61d 9840 07f4 c73f
00000140: b23f bcc0 bebd 23c0 190d 0f40 dc41 37c0
00000150: 810e 4fbf 8561 67c0 375c e93f e81b 913f
00000160: ca7e 2e40 46ea a03f 673b 443f 8f20 95c0
00000170: 1143 8ac0 8288 92bf e7bd f5be 70e1 5ac0
00000180: 034f a3bf d89a f83f c695 8740 0e4d d83e
00000190: 0dc7 4140 1e56 37c0 588c b13d 348c b040
000001a0: d945 2fc0 6467 6640 9b91 013e 1a03 6040
000001b0: 07af c8c0 3b18 8ac0 3b88 bbbf 1c55 a7bf
000001c0: 37fc 5c3f d3ad a8c0 c8c2 fbbf 9ab4 41be
000001d0: 9a73 fa3f 5021 eb3f 223c 61c0 5bdf 16c0
000001e0: 520b 4ac0 ea24 b8c0 7af9 73c0 3ec8 a93d
000001f0: 0d0b f3bf f389 a9bf 1c89 5ebf 8985 0e3e
00000200: 88ad 4ac0 b2c7 e7be 29f8 3540 4261 b7bf
00000210: f156 5fbe 2351 04c0 c25c c43f 4b32 3f40
00000220: 7eba 9f3f 24dd c63f 40bb 303f 7448 9ebf
00000230: 9fab 50c0 ec8e 5fc0 87ec c93e a897 eabe
00000240: 7a38 73bf af75 f6be 87fa ec3d 4e89 3cc0
00000250: e67c 963f 70b5 80bf c7d8 0740 bba7 b8bf
00000260: ec6b 033f 2d16 553f 95e8 e0be afdd 79bf
00000270: 0b9b c9c0 6f37 9fbf 6753 833f 26d8 aac0
00000280: 3360 b9bf 7656 57bf 296b 76c0 3f2f edbe
00000290: a3a9 6341 2356 913e 74c4 57c0 9a2f e33f
000002a0: ed0b bbc0 1fbf 4e3f 5bdf eb3f 9374 5a40
000002b0: 11a9 d7bf b730 dabf 0ec0 b340 65bb 6c40
000002c0: 883e a0bf 2677 1bbe 508e aabe 9e82 46c0
000002d0: 0fb5 bd3e bb01 bc3e 2edf d23e 65d1 f6bf
000002e0: 348f 7f40 5b3c b43f 0de5 8cbf e42b abc0
000002f0: 970b 3bc0 5b4b 6340 b8d6 4c3e dcb0 c7bf
00000300: 2722 7b3e 0959 1bc0 a427 19c0 d1dc afbc
00000310: 15c9 1040 42f3 d33f e878 7ec0 3ad8 afbf
00000320: e4cc e9bf 7965 04c0 2180 0fbf 1393 2e3e
00000330: cf3c c5be 9ebd 8dbf 536e 06c0 652b 433e
00000340: c38d 9c3f a43b 84c0 a63e 1cc0 eaa6 663f
00000350: 2344 90c0 4cfc c63f aeeb 78c0 be3b 35c0
00000360: 8ecc a33d 0c56 82c0 4cec bec0 df98 54be
00000370: c7bb 6dbf 03f1 c8bf d12e 54c0 53e3 81bf
00000380: f84d 393f 10a0 14c0 b8d4 ecbf 5087 e4bd
00000390: fc4f 5d40 2bd8 d13f 6a9e 61c0 59c3 c5bf
000003a0: 965e 8dbf 3a64 f4bf 7937 9abf e0cb 543f
000003b0: 3ffb 28bf 311d 8bbf 960b 33bf 1d9b 8cbf
000003c0: 7745 413e d66a 17c0 8f7b 8ebf df07 81bd
000003d0: e63c e03f d54a c73f f912 8fc0 e136 c8bf
000003e0: e4ae 90bf 8c4a 04c0 dbcd 8dbf 3605 e7be
000003f0: 9929 f9be ddde 8dbf cfd1 b9bf e455 1e3f

Add_3;convolution_4;depthwise;Const_11 f4 [16]
-0.060683295 0.13822569 0.24333346 0.26956564 0.47939283 -0.12074498 -0.2669262 -0.43557888
0.19564867 -0.045941398 0.011016624 -0.04285161 0.21934122 0.0013152875 -0.0019356498 0.15452734
00000000: 0c8f 78bd 098b 0d3e 682c 793e 8204 8a3e
00000010: fa72 f53e 2549 f7bd 8daa 88be 3204 dfbe
00000020: 2058 483e 0c2d 3cbd 127f 343c 2b85 2fbd
00000030: fc9a 603e ba65 ac3a a1b5 fdba 6a3c 1e3e

Add_5;convolution_4;depthwise_1;Const_15 f4 [16]
0.055895448 -0.10324923 -0.2913695 -0.038365725 -0.12241692 -0.21107824 -0.117688484 0.19487514
0.26107684 0.2719014 -0.22205457 -0.12775117 -0.16923513 0.16578427 -0.060863715 -0.20783302
00000000: a0f2 643d 5574 d3bd 622e 95be 6125 1dbd
00000010: b9b5 fabd e524 58be a906 f1bd 598d 473e
00000020: ddab 853e a936 8b3e 4662 63be 34d1 02be
00000030: f94b 2dbe 5ac3 293e 3b4c 79bd 2ed2 54be

Add_7;convolution_4;depthwise_2;Const_19 f4 [16]
-0.142203 -0.17031671 -0.24854502 0.31375432 0.058281623 0.3170359 -0.20908062 -0.09117645
-0.14160909 0.13248679 0.122262016 -0.037882783 0.3360074 -0.07957085 -0.123063356 -0.21145608
00000000: aa9d 11be 8167 2ebe 9682 7ebe 68a4 a03e
00000010: b6b8 6e3d 8852 a23e 3b19 56be b8ba babd
00000020: f901 11be 9eaa 073e 8264 fa3d fa2a 1bbd
00000030: 2909 ac3e 0bf6 a2bd a408 fcbd f187 58be
