recovery/root/odm/variant/haotian/odm/firmware/film_model.tflite (tflite, 11808 bytes, 10 tensors)

sequential/fc1/BiasAdd/ReadVariableOp f4 [3]
0.015990298 0.1447111 -0.20894216
00000000: 16fe 823c 262f 143e eff4 55be

sequential/relu0/Relu;sequential/bn0/FusedBatchNormV3;sequential/ftr0/BiasAdd/ReadVariableOp;sequential/ftr0/BiasAdd;sequential/ftr0/Conv2D f4 [8]
0.3169881 0.21132962 0.4785622 -0.9766345 0.23112357 -0.089743055 0.19325753 0.21243745
00000000: 444c a23e cb66 583e 1b06 f53e b804 7abf
00000010: a8ab 6c3e 35cb b7bd 4de5 453e 3489 593e

sequential/relu2/Relu;sequential/bn2/FusedBatchNormV3;sequential/ftr11/BiasAdd/ReadVariableOp;sequential/ftr11/BiasAdd;sequential/ftr2/Conv2D;sequential/ftr11/Conv2D f4 [16]
0.499897 0.9073207 -2.3498151 -0.6072559 1.8723495 1.0410597 -0.48857242 -0.25312313
-0.7753476 -2.177984 -2.5731285 0.24913931 2.1240158 1.9503045 -0.88781667 0.66966546
00000000: 80f2 ff3e 2b46 683f 5f63 16c0 1f75 1bbf
00000010: 26a9 ef3f 7241 853f 2a26 fabe 5b99 81be
00000020: 2e7d 46bf 1764 0bc0 23ae 24c0 601e 7f3e
00000030: e0ef 0740 94a3 f93f f447 63bf 326f 2b3f

sequential/activation/Relu;sequential/batch_normalization/FusedBatchNormV3;sequential/ftr2/BiasAdd/ReadVariableOp;sequential/ftr2/BiasAdd;sequential/ftr2/Conv2D f4 [16]
-1.5377365 1.2174855 -1.9340926 1.0518645 -5.4342546 0.37003407 0.81562084 -1.0165421
-0.24460047 3.723436 -2.3354056 -3.1410294 2.8978825 0.98563826 1.1975057 1.1224343
00000000: 8dd4 c4bf 91d6 9b3f 5990 f7bf 7fa3 863f
00000010: 6ae5 adc0 1b75 bd3e 87cc 503f 0d1e 82bf
00000020: 8c78 7abe c74c 6e40 4977 15c0 a006 49c0
00000030: e876 3940 ca52 7c3f de47 993f edab 8f3f

sequential/activation_1/Relu;sequential/batch_normalization_1/FusedBatchNormV3;sequential/ftr3/BiasAdd/ReadVariableOp;sequential/ftr3/BiasAdd;sequential/ftr3/Conv2D f4 [32]
-1.421833 2.1080356 0.012718916 1.323916 0.5731392 -1.4665864 3.3198638 3.4080665
4.016827 -2.4947352 -3.7541904 3.6067338 -1.2166823 3.9969912 2.9393687 -1.370619
4.1563725 4.449786 4.968216 -1.4849839 -3.0536933 3.655193 -2.3011522 -3.1669903
2.061574 -0.22145927 -1.9694505 4.3495646 2.707448 3.9987755 -3.1599708 -0.96738315
00000000: a0fe b5bf 0eea 0640 0063 503c 1476 a93f
00000010: 40b9 123f 1ab9 bbbf a678 5440 c31d 5a40
00000020: d989 8040 bea9 1fc0 a844 70c0 bad4 6640
00000030: 3fbc 9bbf b4ce 7f40 9e1e 3c40 7270 afbf
00000040: 0101 8540 a664 8e40 a0fb 9e40 f413 bebf
00000050: b66f 43c0 afee 6940 1446 13c0 f8af 4ac0
00000060: d4f0 0340 38c6 62be f416 fcbf a22f 8b40
00000070: d446 2d40 f0eb 7f40 f63c 4ac0 6ca6 77bf

sequential/fc1/MatMul f4 [3, 32]
0.7703937 0.12463792 0.1513027 -0.37800348 -0.83762425 0.4873683 -1.071963 -0.88105685
-0.8879542 0.9395104 1.0299987 -1.4722167 0.7877329 -1.3860629 -1.0357028 0.7041021
-0.7418459 -0.7438609 -1.0057558 0.4638138 1.0162787 -1.0695004 0.9180742 1.0431238
-0.8405566 -0.034663334 -0.055583026 -1.0272082 -0.5149263 -1.1533934 0.8107342 0.62481844
0.1783353 -0.6854448 0.3864744 0.7708281 0.41148588 -0.07031468 -0.24980958 -0.31829548
0.13213009 -0.30043286 -0.35833868 -0.39170912 0.3865002 -0.14047246 -0.2808401 -0.04742185
0.35772777 0.62198216 0.5496473 -0.032919332 -0.75065386 -0.20129417 -0.1726027 -0.47838062
-0.63579255 -0.058497183 0.87876374 0.703042 0.8234155 -0.19178267 -0.61243916 0.47514248
-1.6120051 0.9669146 -1.4956164 -0.606063 0.3936942 -1.6947746 1.2561929 0.78123105
1.0689247 -0.88425255 -1.1575285 0.9536596 -1.138019 0.9007828 1.0306474 -1.288501
0.58371454 0.4695983 0.691297 -1.5015417 -0.43738836 0.69668674 -1.6200173 -0.577829
0.98823965 -1.3750031 -0.08871966 0.52325773 -0.1600352 0.8470507 -1.1530081 -1.4413915
00000000: 8638 453f 2a42 ff3d 18ef 1a3e ac89 c1be
00000010: 8b6e 56bf 5688 f93e 1536 89bf f18c 61bf
00000020: f750 63bf c183 703f ffd6 833f 9971 bcbf
00000030: dda8 493f 826a b1bf e991 84bf 0940 343f
00000040: 9de9 3dbf ab6d 3ebf 9bbc 80bf 0179 ed3e
00000050: 6c15 823f 64e5 88bf e906 6b3f 1585 853f
00000060: b82e 57bf 24fb 0dbd 07ab 63bd 8f7b 83bf
00000070: 36d2 03bf 65a2 93bf 478c 4f3f 1af4 1f3f
00000080: 879d 363e 4f79 2fbf f9df c53e fe54 453f
00000090: 47ae d23e 2501 90bd 15ce 7fbe a0f7 a2be
000000a0: 1c4d 073e 56d2 99be 2b78 b7be 198e c8be
000000b0: 5be3 c53e 03d8 0fbe 46ca 8fbe 6a3d 42bd
000000c0: 1828 b73e 393a 1f3f afb5 0c3f 6cd6 06bd
000000d0: da2a 40bf 0f20 4ebe c3be 30be 4eee f4be
000000e0: 4dc3 22bf be9a 6fbd a9f6 603f 8ffa 333f
000000f0: 5ccb 523f ad62 44be d0c8 1cbf e045 f33e
00000100: 2f56 cebf b787 773f 5c70 bfbf f226 1bbf
00000110: 4992 c93e 60ee d8bf eeca a03f c2fe 473f
00000120: 86d2 883f 605e 62bf e529 94bf 0923 743f
00000130: 9baa 91bf b499 663f 41ec 833f 9aed a4bf
00000140: 516e 153f 306f f03e d7f8 303f 8532 c0bf
00000150: 5ef1 dfbe 105a 323f ba5c cfbf 9aec 13bf
00000160: 46fd 7c3f 1a00 b0bf a7b2 b5bd 38f4 053f
00000170: 44e0 23be 51d8 583f c595 93bf 847f b8bf

sequential/ftr0/Conv2D f4 [8, 5, 5, 1]
-0.004643568 0.008886452 -0.021886436 0.0030168197 -5.2831092e-05 0.00039378167 0.0038138204 -0.006371081
0.0060293013 -0.00968664 0.005361809 -0.010429921 0.008735048 -0.003207433 0.00686009 -0.008117222
0.0057501406 0.0020792452 -0.00688678 -0.004185146 0.008496424 -0.010702868 0.0067057596 -0.0025389588
-0.0027581211 0.00026603573 -0.0086993715 0.00834477 0.0014525686 -0.004640459 0.004684909 -0.0011574439
-0.009835653 0.0009503704 0.0025573056 0.0017896792 0.004993578 -0.006915568 -0.0032987993 0.0043241004
-0.005561315 0.004527596 0.002843269 -0.005523365 0.0035261575 -0.005670471 0.006859272 -0.0017110702
-0.004357387 0.0003895562 0.00044112495 -0.001877214 -0.0038219686 -0.0028614302 0.0047192713 0.003929199
0.00065846794 0.002433516 0.0071114856 -0.0023413259 1.0692189e-06 -0.0025691248 -0.0028278236 -0.0030398765
-0.004366656 0.004359436 -0.0024788124 -0.0015802322 -0.0061948695 0.0006407782 -0.005119388 -0.00018859205
0.0022358457 0.006462034 -0.0025190825 -0.0013783238 0.00896395 -0.0042315484 0.0037556125 0.0022005097
-0.0029909082 0.0013536412 -0.003294059 -0.0054137036 0.006350662 0.0069796205 -0.0044480236 -0.004032896
0.0014312346 -0.0016881188 0.002542879 -0.0036057248 0.0060725166 0.0020702423 -0.001729479 0.0006365033
0.002519358 0.0011705604 0.0019632094 -0.00010140821 0.0017038343 0.005297714 -0.004918196 0.0038482537
0.00039419445 0.0042414255 -0.008319945 0.0017395171 0.0037560759 -0.007000713 -0.0040838546 0.0049065696
-0.0017007926 -0.006222861 -0.004733435 0.0030761468 -0.0049461415 -0.0031673484 0.006470556 0.0077259536
0.0011348428 -0.008037985 -0.0075611514 -0.0029583126 -0.0075677964 0.00024292278 0.0008541299 0.0011597843
0.000853005 -0.00095574174 0.002091029 0.0024261014 -1.5417563e-05 0.0037787412 0.0014855951 -0.0015724992
-0.00049258757 -0.00017938227 -0.0021766536 0.0018514261 -0.0017271568 0.0021540408 0.001426832 0.003602743
0.0016396673 -0.00069779257 0.0009256156 0.0027401345 0.00012196938 -0.0013577176 -0.00067240087 0.00051044347
0.006768869 -0.0032220518 -0.00043337513 -0.0051439917 0.0053721634 -0.0010736601 -0.013080991 0.0052242014
-0.0029567173 0.0010963392 0.0026259448 -0.0062558474 0.00024913703 0.0012908948 0.0029429004 -0.0052097626
0.012234903 -0.004455368 0.00328972 0.0034993785 -0.006001811 0.002506612 -5.2379564e-05 -0.001605143
-0.009443377 -0.00014516224 0.0017448554 -5.2787924e-05 0.006675553 -0.016171707 -0.0012673342 0.0009118717
-0.00033089618 -0.0006652759 -0.005594359 -0.00053268677 0.0024334895 0.00048797042 -0.0026040736 -0.003589355
-0.0019162704 -0.0011455746 0.00036808106 -0.0013172476 0.0033652233 0.0028028914 0.00074803084 0.0008148838
00000000: 1229 98bb 7b98 113c 2f4b b3bc d6b5 453b
00000010: f496 5db8 7b74 ce39 4af1 793b 80c4 d0bb
00000020: 7291 c53b b7b4 1ebc 1db2 af3b 42e2 2abc
00000030: 721d 0f3c cc33 52bb 9bca e03b 19fe 04bc
00000040: ad6b bc3b f243 083b 7faa e1bb 8d23 89bb
00000050: 9634 0b3c 155b 2fbc fdbb db3b a964 26bb
00000060: 98c1 34bb b67a 8b39 cf87 0ebc 81b8 083c
00000070: 1d64 be3a fe0e 98bb dd83 993b 5fb5 97ba
00000080: b825 21bc 4722 793a 7898 273b ab93 ea3a
00000090: 2ba1 a33b fd9b e2bb ab30 58bb 2fb1 8d3b
000000a0: b13b b6bb 3a5c 943b 2356 3a3b 58fd b4bb
000000b0: 1b17 673b 5ccf b9bb bec3 e03b fd45 e0ba
000000c0: 69c8 8ebb 593d cc39 ca46 e739 d90c f6ba
000000d0: fe79 7abb d586 3bbb 1ea4 9a3b 83c0 803b
000000e0: 099d 2c3a a07b 1f3b 7707 e93b ee70 19bb
000000f0: 1582 8f35 c35e 28bb 0253 39bb aa38 47bb
00000100: 2a16 8fbb 9ad9 8e3b 9273 22bb cb1f cfba
00000110: 55fe cabb e6f9 273a 8ac0 a7bb cbc0 45b9
00000120: 4487 123b 78bf d33b 3117 25bb dfa8 b4ba
00000130: 88dd 123c cda8 8abb b920 763b 6d36 103b
00000140: 1d03 44bb a96c b13a 24e1 57bb 7065 b1bb
00000150: 3719 d03b 4db5 e43b bac0 91bb 6226 84bb
00000160: 4498 bb3a de43 ddba 6ea6 263b 064e 6cbb
00000170: f6fb c63b e7ac 073b afaf e2ba 03db 263a
00000180: d01b 253b 7d6d 993a 30a9 003b 1eab d4b8
00000190: 3153 df3a 7298 ad3b d128 a1bb fc32 7c3b
000001a0: e2ab ce39 a8fb 8a3b 6150 08bc 8200 e43a
000001b0: 7f28 763b 3d66 e5bb dbd1 85bb 4ac7 a03b
000001c0: 21ed deba 24e9 cbbb ee1a 9bbb 2e99 493b
000001d0: 3e13 a2bb 4a93 4fbb f506 d43b ff29 fd3b
000001e0: 01bf 943a c1b1 03bc 89c3 f7bb 40e0 41bb
000001f0: 47fb f7bb 16b9 7e39 b0e7 5f3a e703 983a
00000200: 329c 5f3a be8a 7aba a509 093b 3aff 1e3b
00000210: f754 81b7 c2a4 773b 4db8 c23a 511c ceba
00000220: fe20 01ba 9018 3cb9 30a6 0ebb 8dab f23a
00000230: c461 e2ba cf2a 0d3b 8a04 bb3a ff1b 6c3b
00000240: 1bea d63a 11ec 36ba 03a5 723a d493 333b
00000250: d0c9 ff38 71f5 b1ba 0f44 30ba 48cf 053a
00000260: 63cd dd3b 0f29 53bb a036 e3b9 ee8e a8bb
00000270: f908 b03b 0eba 8cba a751 56bc c72f ab3b
00000280: 7cc5 41bb 0ab3 8f3a 0b18 2c3b dafd ccbb
00000290: 9b9e 8239 3e33 a93a addd 403b a8b6 aabb
000002a0: e774 483c 56fe 91bb 5898 573b d455 653b
000002b0: d7aa c4bb f945 243b 21b2 5bb8 a963 d2ba
000002c0: 65b8 1abc b136 18b9 a2b3 e43a 9a68 5db8
000002d0: 99be da3b 877a 84bc ae1c a6ba ad0a 6f3a
000002e0: 227c adb9 e965 2eba e250 b7bb 01a4 0bba
000002f0: 2e7b 1f3b 48d6 ff39 1ba9 2abb 623b 6bbb
00000300: 5d2b fbba 1b27 96ba 01fb c039 7fa7 acba
00000310: 148b 5c3b b7b0 373b 8017 443a ed9d 553a

sequential/ftr11/Conv2D i1 [16, 3, 3, 8]
-6 41 -127 -63 111 -20 -24 65
10 -73 -42 -20 8 24 61 18
-23 -21 -19 -1 -44 114 -52 -31
-22 55 -81 -8 85 -50 -20 -52
-11 -21 56 3 47 7 40 -52
-13 -20 -79 49 -28 41 -68 -59
-32 -21 67 -39 -68 84 -110 -37
26 -25 86 -72 -73 56 -23 4
15 20 61 10 11 -28 -31 -24
35 20 -39 33 16 -33 -4 18
47 -9 7 -28 14 -7 -23 14
-36 -65 17 -8 -70 -24 11 11
-31 8 19 -23 -19 -24 -8 31
79 34 -7 38 68 5 40 83
-77 -102 -9 -3 -66 -65 -127 10
-19 1 11 3 1 9 -4 -45
31 21 8 29 14 36 -12 41
-18 25 9 36 -50 -60 -83 14
13 18 88 32 86 32 16 -46
6 16 60 6 84 26 31 65
19 25 14 -1 -12 6 46 51
40 34 66 38 56 16 -60 -127
-22 59 65 63 39 43 -7 3
-26 42 22 44 41 10 58 24
-6 -13 0 -7 0 -38 -56 -57
-50 75 14 37 8 -9 -31 29
-5 25 51 66 65 -6 39 58
-75 -86 -11 -40 -60 -71 -36 -46
38 24 56 51 70 -30 58 -83
50 21 -9 -49 5 -7 33 -4
-76 -127 -15 -42 -112 -99 -83 -79
43 106 95 13 31 17 54 11
00000000: fa29 81c1 6fec e841 0ab7 d6ec 0818 3d12
00000010: e9eb edff d472 cce1 ea37 aff8 55ce eccc
00000020: f5eb 3803 2f07 28cc f3ec b131 e429 bcc5
00000030: e0eb 43d9 bc54 92db 1ae7 56b8 b738 e904
00000040: 0f14 3d0a 0be4 e1e8 2314 d921 10df fc12
00000050: 2ff7 07e4 0ef9 e90e dcbf 11f8 bae8 0b0b
00000060: e108 13e9 ede8 f81f 4f22 f926 4405 2853
00000070: b39a f7fd bebf 810a ed01 0b03 0109 fcd3
00000080: 1f15 081d 0e24 f429 ee19 0924 cec4 ad0e
00000090: 0d12 5820 5620 10d2 0610 3c06 541a 1f41
000000a0: 1319 0eff f406 2e33 2822 4226 3810 c481
000000b0: ea3b 413f 272b f903 e62a 162c 290a 3a18
000000c0: faf3 00f9 00da c8c7 ce4b 0e25 08f7 e11d
000000d0: fb19 3342 41fa 273a b5aa f5d8 c4b9 dcd2
000000e0: 2618 3833 46e2 3aad 3215 f7cf 05f9 21fc
000000f0: b481 f1d6 909d adb1 2b6a 5f0d 1f11 360b

sequential/ftr2/Conv2D i1 [16, 3, 3, 16]
-32 88 35 -22 -18 -6 41 -22
7 48 33 0 38 -15 -8 84
-7 -56 55 -36 2 20 -29 93
-35 -2 6 7 -4 -11 42 55
41 20 61 52 24 53 -28 25
45 27 3 124 56 -47 52 19
-2 -61 56 -13 -46 -63 -50 65
41 55 -39 -18 -44 -54 -5 -54
19 -14 31 -28 8 -26 6 -6
-34 21 -3 -5 -70 1 8 46
25 -22 27 52 2 66 -36 -12
-10 65 27 32 44 -6 71 12
-14 19 -108 -36 30 44 67 44
43 -95 -33 -44 31 -19 74 -9
14 -2 -7 40 2 50 -12 35
13 -5 7 -1 19 -38 -79 -48
-2 -47 0 -34 98 79 -11 -9
70 60 -1 70 127 -31 19 15
-30 64 20 -5 -3 -52 -14 10
0 -11 1 -65 -22 -31 8 18
-69 0 -24 -16 -14 -55 85 -38
-9 1 66 -39 -35 49 52 -38
-47 -22 5 -70 4 2 -28 -11
-11 -4 -19 10 24 -2 -58 -58
-44 33 -49 14 25 -85 37 -70
-123 16 2 -93 127 -27 21 25
-17 8 -19 -47 -35 -31 -3 -25
-42 -3 -21 28 -48 94 47 -4
-85 39 -19 -15 -17 -23 4 -35
-61 -51 22 0 0 -40 -1 -11
-96 21 -36 -66 12 -6 -27 15
23 -64 -38 -65 32 -57 -33 -26
00000000: e058 23ea eefa 29ea 0730 2100 26f1 f854
00000010: f9c8 37dc 0214 e35d ddfe 0607 fcf5 2a37
00000020: 2914 3d34 1835 e419 2d1b 037c 38d1 3413
00000030: fec3 38f3 d2c1 ce41 2937 d9ee d4ca fbca
00000040: 13f2 1fe4 08e6 06fa de15 fdfb ba01 082e
00000050: 19ea 1b34 0242 dcf4 f641 1b20 2cfa 470c
00000060: f213 94dc 1e2c 432c 2ba1 dfd4 1fed 4af7
00000070: 0efe f928 0232 f423 0dfb 07ff 13da b1d0
00000080: fed1 00de 624f f5f7 463c ff46 7fe1 130f
00000090: e240 14fb fdcc f20a 00f5 01bf eae1 0812
000000a0: bb00 e8f0 f2c9 55da f701 42d9 dd31 34da
000000b0: d1ea 05ba 0402 e4f5 f5fc ed0a 18fe c6c6
000000c0: d421 cf0e 19ab 25ba 8510 02a3 7fe5 1519
000000d0: ef08 edd1 dde1 fde7 d6fd eb1c d05e 2ffc
000000e0: ab27 edf1 efe9 04dd c3cd 1600 00d8 fff5
000000f0: a015 dcbe 0cfa e50f 17c0 dabf 20c7 dfe6

sequential/ftr3/Conv2D f4 [32, 1, 1, 16]
1.0479472 -1.3741398 -0.7578202 1.1026856 0.33804375 -0.39370507 -0.07272273 1.4725595
1.4644768 -0.46746987 0.37522268 2.2558894 -0.56927365 1.9115111 1.4902095 0.61693794
-1.138144 -4.4749575 -0.60978955 -0.9062115 -0.0636062 -0.6782137 1.9017762 -1.1833988
-0.0151542025 1.0344582 -0.61499095 0.077346966 0.8505668 -0.9977705 -0.88223225 -3.0200152
1.3408083 1.3056456 -0.103240624 1.5238534 -0.63281083 -1.6365888 0.50104624 0.3525858
0.7742268 -2.1471074 0.66797507 1.8527457 -1.2904868 0.7245405 0.71945304 0.37197658
0.35825905 2.1818461 0.45227417 2.0605195 -1.8409418 -2.4744442 0.49447674 -0.42468607
0.52198654 -1.9384463 -0.5114198 0.8005867 -1.3633074 -1.1645226 -0.6276407 1.9147499
-1.3752605 1.070567 1.5529352 -0.022405354 1.0069803 -3.240036 -1.3895968 -0.9892676
-0.31500322 1.3735346 -1.3946525 -0.3482103 2.5139823 -0.55862427 0.16761482 -0.33984536
1.1804297 -1.3191925 -0.62752205 1.2286476 0.21413518 -0.25331688 0.52941865 1.455854
0.97466785 -0.5008804 0.4905206 2.192658 -0.66380394 1.4941082 1.0480548 0.2534703
-1.717609 -2.619236 -1.3843721 -2.479663 1.7503161 -1.3870246 -2.0050523 -2.2563553
-2.142228 2.6154642 -1.4126925 0.8883852 1.6785369 -1.2954205 0.10497932 -2.3907373
-1.919108 -2.6086073 -1.3380576 -2.1462674 1.8048728 -1.1562699 -1.2185794 -2.6072705
-2.3189871 2.0604534 -2.0115957 1.1721758 1.7882888 -1.1171305 -0.036548447 -2.8087413
-0.9712378 -2.4487786 -1.9927495 -1.5690689 0.43329158 -1.372968 -2.4244666 -1.7285752
-2.2661834 1.8980755 -1.2804168 0.97748226 2.0837448 -1.3568501 -0.7998487 -2.663739
1.3409141 -1.5509639 -1.166913 0.3082754 1.193109 -0.88318264 1.6454287 1.7118024
1.6592535 0.58342785 0.7939879 1.0122781 -0.32513165 1.835488 0.9876876 -0.69679224
1.8555558 -1.3582097 -1.3885669 0.45544627 1.1416556 0.7442733 0.5852751 2.164112
1.4550667 1.4305347 1.280236 0.49164253 0.071539775 2.403496 2.5558856 -1.6798372
-1.5626155 -2.5151832 -1.3506179 -1.8226334 1.3541869 -1.8498179 -2.710049 -1.6634896
-1.7809798 2.3663645 -1.2918768 0.72176 2.1122062 -1.1117429 -0.994993 -2.559961
1.6868559 -0.77343273 -0.56623745 1.0084635 0.26410162 -0.76827484 0.23016939 1.3952575
1.2306533 -0.65028834 0.5247727 2.4158678 -0.9918805 1.6496097 0.22541557 0.7000116
-1.0597475 -1.6181912 -2.0755715 -1.9565294 0.833436 -1.2093352 -2.3531332 -1.7821238
-2.5135818 1.5827059 -1.3164483 0.8561752 1.8243282 -1.1326138 -1.111165 -2.441125
-2.6035256 -2.9705951 0.25583056 -2.037809 2.1082437 -1.1581906 -2.0274866 -1.6112419
-1.4542165 2.7096596 -1.0006051 0.03447542 2.28357 -1.1745856 -1.4820518 -3.4672518
0.91118944 -1.86477 -0.84445393 0.3397113 0.5979315 -1.7435913 0.96257514 1.579505
1.7637969 0.33767083 0.42300856 2.0629828 -0.82167804 2.0106802 -0.007084751 1.0034487
00000000: 2223 863f d0e3 afbf 8100 42bf cd24 8d3f
00000010: 1214 ad3e b693 c9be a8ef 94bd d47c bc3f
00000020: fa73 bb3f 3658 efbe 301d c03e 7e60 1040
00000030: ebbb 11bf 65ac f43f 2fbf be3f a5ef 1d3f
00000040: b4ae 91bf da32 8fc0 2b1b 1cbf 7afd 67bf
00000050: f843 82bd 6a9f 2dbf 676d f33f 9d79 97bf
00000060: 5549 78bc 2069 843f 0c70 1dbf 1668 9e3d
00000070: bfbe 593f e36d 7fbf f9d9 61bf ee47 41c0
00000080: 9b9f ab3f 651f a73f d26f d3bd a10d c33f
00000090: e4ff 21bf be7b d1bf 9144 003f 2086 b43e
000000a0: ba33 463f 356a 09c0 6a00 2b3f c526 ed3f
000000b0: ac2e a5bf 7c7b 393f 132e 383f b773 be3e
000000c0: bb6d b73e 5ea3 0b40 7b90 e73e 8ddf 0340
000000d0: fba3 ebbf 4b5d 1ec0 0e2c fd3e 7470 d9be
000000e0: e9a0 053f 021f f8bf 68ec 02bf 40f3 4c3f
000000f0: db80 aebf 140f 95bf 10ad 20bf 8616 f53f
00000100: 8908 b0bf 5708 893f 95c6 c63f 6f8b b7bc
00000110: bbe4 803f c05c 4fc0 4fde b1bf a440 7dbf
00000120: 1a48 a1be fbcf af3f f983 b2bf 9f48 b2be
00000130: 16e5 2040 0002 0fbf 38a3 2b3e 3600 aebe
00000140: 5218 973f 4ddb a8bf 49a5 20bf 5344 9d3f
00000150: 4146 5b3e c0b2 81be fb87 073f 6d59 ba3f
00000160: d583 793f b339 00bf 8425 fb3e 8254 0c40
00000170: 0eef 29bf f03e bf3f a926 863f dcc6 813e
00000180: 9dda dbbf 90a1 27c0 1b33 b1bf ccb2 1ec0
00000190: 5c0a e03f 068a b1bf c752 00c0 2068 10c0
000001a0: 431a 09c0 c463 2740 1cd3 b4bf 366d 633f
000001b0: 4cda d63f 57d0 a5bf 66ff d63d d701 19c0
000001c0: 55a5 f5bf 6cf3 26c0 7945 abbf 725c 09c0
000001d0: 1206 e73f a700 94bf 69fa 9bbf 85dd 26c0
000001e0: 496a 14c0 78de 0340 fcbd 00c0 db09 963f
000001f0: a6e6 e43f 22fe 8ebf d3b3 15bd 6bc2 33c0
00000200: 0aa3 78bf cab8 1cc0 6a12 ffbf 40d7 c8bf
00000210: 65d8 dd3e 6abd afbf 762a 1bc0 f441 ddbf
00000220: 2609 11c0 23f4 f23f b3e4 a3bf 473c 7a3f
00000230: 135c 0540 44ad adbf e2c2 4cbf b37a 2ac0
00000240: 13a3 ab3f fc85 c6bf 685d 95bf 46d6 9d3e
00000250: ccb7 983f 4218 62bf 689d d23f 571c db3f
00000260: 6b62 d43f 875b 153f ca42 4b3f 5492 813f
00000270: a877 a6be 45f1 ea3f 18d9 7c3f fa60 32bf
00000280: da82 ed3f d1d9 adbf 8fbc b1bf 4130 e93e
00000290: c521 923f b288 3e3f 97d4 153f d080 0a40
000002a0: a03f ba3f c31b b73f c6de a33f 92b8 fb3e
000002b0: 7283 923d e1d2 1940 a193 2340 e804 d7bf
000002c0: c903 c8bf c3f8 20c0 0ce1 acbf 0d4c e9bf
000002d0: ff55 ad3f d5c6 ecbf 7171 2dc0 3aed d4bf
000002e0: 25f7 e3bf 8472 1740 385c a5bf 43c5 383f
000002f0: 632e 0740 974d 8ebf dcb7 7ebf 67d6 23c0
00000300: e5ea d73f b0ff 45bf f0f4 10bf 5515 813f
00000310: 5438 873e a9ad 44bf 86b1 6b3e cc97 b23f
00000320: 0c86 9d3f 4c79 26bf 8157 063f 949d 1a40
00000330: e1eb 7dbf 6926 d33f 57d3 663e f633 333f
00000340: cea5 87bf e420 cfbf 2ad6 04c0 8e6f fabf
00000350: 105c 553f 7fcb 9abf bc99 16c0 a21c e4bf
00000360: 86de 20c0 1b96 ca3f 6181 a8bf 4c2e 5b3f
00000370: 9683 e93f 7df9 90bf a83a 8ebf 643b 1cc0
00000380: 2aa0 26c0 3b1e 3ec0 39fc 823e 766b 02c0
00000390: 77ed 0640 973f 94bf 57c2 01c0 2d3d cebf
000003a0: c423 babf 106b 2d40 d413 80bf 1936 0d3d
000003b0: 0326 1240 d258 96bf e0b3 bdbf 74e7 5dc0
000003c0: b643 693f c9b0 eebf 222e 58bf a4ee ad3e
000003d0: 0a12 193f 002e dfbf 536b 763f 382d ca3f
000003e0: 19c4 e13f 31e3 ac3e 9494 d83e e907 0440
000003f0: 7e59 52bf fcae 0040 3327 e8bb 0271 803f
