recovery/root/odm/variant/haotian/odm/firmware/water_check.tflite (tflite, 15276 bytes, 18 tensors)

mul_2 f4 [1, 3]
0	0x3c23d70a	0.01
1	0x3f0328b7	0.51234
2	0x3c23d70a	0.01

Const_13 f4 [16]
0	0xbedf754c	-0.43644178
1	0xbf3245d9	-0.6963783
2	0x3f7be8a7	0.98401874
3	0x3f9fa87b	1.2473291
4	0xbd9615a4	-0.07328346
5	0xbeb5402c	-0.35400522
6	0x3f1eae12	0.6198436
7	0xbf82ed6a	-1.0228703
8	0x3e042c4a	0.1290752
9	0xbf60df1c	-0.8784044
10	0x3ea9cef6	0.3316571
11	0x3f767adb	0.9628121
12	0xbec3192c	-0.38105142
13	0xbbf18740	-0.0073708594
14	0xbf0b9e7c	-0.545387
15	0xbe99c17c	-0.3003043

Const_17 f4 [16]
0	0xbf96cefc	-1.1781917
1	0x3f250a63	0.64468974
2	0xbed49d1d	-0.41526118
3	0xbd69e038	-0.057098597
4	0xbf69ba70	-0.91300106
5	0x3ea74d28	0.32676053
6	0xbfd0b6a7	-1.6305741
7	0x3f45f19c	0.7732179
8	0x3f4c98c8	0.79920626
9	0xbe15261a	-0.14565316
10	0xbf60227b	-0.87552613
11	0x3f988aa7	1.1917313
12	0xbea3998c	-0.31953084
13	0x3f72005f	0.94531816
14	0x3f1831be	0.594509
15	0x3ebd7c43	0.37008867

Const_21 f4 [16]
0	0x4056227e	3.3458552
1	0x40244cf7	2.5671976
2	0xc00db57a	-2.2142015
3	0x3f2dab13	0.67839164
4	0x3eb136fe	0.34612268
5	0xc004f7e2	-2.0776296
6	0xbfef89f9	-1.8713981
7	0x418313dc	16.384697
8	0x4014ef44	2.3271036
9	0x401b0630	2.4222527
10	0x3fee0891	1.8596364
11	0x4037f8b1	2.874554
12	0x402e4a7b	2.723296
13	0xc0f02627	-7.5046573
14	0xbfcf7b84	-1.6209569
15	0x40d846b9	6.758633

Const_24 f4 [3]
0	0x3e80ad4f	0.25132224
1	0xbe454497	-0.19264446
2	0xbf4e2510	-0.805253

Const_9 f4 [16]
0	0xbf2f0d08	-0.6837926
1	0xbe341cb8	-0.1758908
2	0x3f592216	0.84817636
3	0x3db853dc	0.0900037
4	0x3e547841	0.20748998
5	0x3f148c41	0.5802651
6	0x3e6dedd7	0.2323526
7	0xbf01f462	-0.50763524
8	0x3c2bcd20	0.010485917
9	0xbe1be5ee	-0.1522443
10	0x3e01b021	0.12664844
11	0xbebe78f9	-0.3720167
12	0x3df79360	0.120886564
13	0x3f26c258	0.65140295
14	0xbf020d4c	-0.5080154
15	0x3ebd93a8	0.37026715

MatMul f4 [3, 16]
0	0x3f74284b	0.9537398
1	0x3f85b14d	1.0444733
2	0xbf7c5bc9	-0.98577553
3	0x3f7a147a	0.97687495
4	0x3f886092	1.0654471
5	0xbf8623fe	-1.0479734
6	0xbf2b0ea3	-0.6681921
7	0x3fd38e27	1.6527756
8	0x3f7efbe0	0.9960308
9	0x3f479935	0.7796815
10	0x3f322c9e	0.6959933
11	0x3f633409	0.88751274
12	0x3f2f085e	0.6837214
13	0x3faa8793	1.3322624
14	0xbf6e2204	-0.93020654
15	0x3f9cf194	1.2261224
16	0xbf7c6cb9	-0.986034
17	0xbf454818	-0.7706313
18	0x3f978169	1.1836368
19	0xbf7950e0	-0.9738903
20	0xbf76e7d7	-0.9644751
21	0x3f746578	0.9546733
22	0x3f8fa0da	1.1220963
23	0xbfcfe0ff	-1.6240538
24	0xbf50b2ca	-0.8152281
25	0xbf86c0a7	-1.0527543
26	0xbf1f86c3	-0.62315005
27	0xbf8ae4d2	-1.085108
28	0xbf87eaa8	-1.0618486
29	0xbfcd96c1	-1.6061631
30	0x3f848585	1.0353247
31	0xbf89dce8	-1.077054
32	0xbf59bf2d	-0.85057336
33	0xbf8ede22	-1.116154
34	0xbf7a0dee	-0.97677505
35	0xbf47b476	-0.78009737
36	0xbf728f28	-0.9474969
37	0xbfa97e3b	-1.3241647
38	0xbfa6c635	-1.3029238
39	0xbf4c7af1	-0.79875094
40	0xbf8349e1	-1.0256921
41	0xbf78a7fd	-0.9713133
42	0xbf81f727	-1.015355
43	0xbf4a34e6	-0.78986967
44	0xbf8a08a7	-1.078389
45	0xbf75d0d9	-0.960218
46	0xbfb35631	-1.4010679
47	0xbf887eb9	-1.0663673

convolution f4 [1, 3, 3, 1]
0	0xba25ead0	-0.000632924
1	0x3d30b68f	0.04314285
2	0xbf447d52	-0.76753724
3	0xbd74aa23	-0.059732568
4	0xbe4c1814	-0.1993106
5	0x3de51949	0.111864634
6	0x3bba6439	0.005688217
7	0xbe28a16a	-0.16467825
8	0x3a30d413	0.00067454687

convolution_1 f4 [16, 1, 1, 1]
0	0x3f9d0c46	1.226937
1	0x3f88411a	1.0644867
2	0xbf7903cb	-0.9727141
3	0x3f80ae0a	1.0053113
4	0xbf82185e	-1.0163686
5	0xbf8b17ab	-1.0866598
6	0xbf6ff7be	-0.937374
7	0x3f89d68b	1.0768598
8	0xbf7038ea	-0.93836844
9	0xbf8a36fd	-1.0798031
10	0xbf7adeeb	-0.97996396
11	0x3f85b4c5	1.0445791
12	0xbf91c8fb	-1.1389459
13	0xbf6e733b	-0.9314458
14	0x3f8b7ad5	1.089686
15	0x3f53170f	0.8245706

depthwise f4 [1, 3, 3, 16]
0	0xbcc11668	-0.023570254
1	0xbe367d33	-0.17821197
2	0xbe0bb0cb	-0.1364166
3	0xbdfac130	-0.12243879
4	0xbdae9f66	-0.085264966
5	0xbd0a081b	-0.033699136
6	0x3e34a546	0.17641172
7	0xbdc2fa93	-0.095204495
8	0xbc923cca	-0.017851252
9	0x3d5591d4	0.052141026
10	0x3d478684	0.04871227
11	0xbdfb107e	-0.12259005
12	0x3d760622	0.060064442
13	0xbd9a1fc8	-0.07525593
14	0x3eb07636	0.34465188
15	0x3c01db50	0.007925823
16	0x3e172fa1	0.14764263
17	0xbe24aa70	-0.16080642
18	0x3dd89b6c	0.10576519
19	0x3e743176	0.23846993
20	0x3d14e1b1	0.03634805
21	0xbd8c264d	-0.06843243
22	0x3d896e89	0.06710536
23	0xbe47edd7	-0.19524322
24	0x3df4b5e0	0.119487524
25	0xbd62376e	-0.055228643
26	0x3d27d9c8	0.040979177
27	0x3e78b000	0.24285889
28	0xbdffe1de	-0.124942526
29	0x3e4a0ece	0.1973221
30	0x3ec0e5d5	0.37675348
31	0x3cad5142	0.02115691
32	0x3cdeff37	0.027221305
33	0xbdf6af7e	-0.12045191
34	0x3d7c309b	0.06156979
35	0x3d8572ee	0.06516062
36	0x3de98956	0.11403148
37	0xbe2488ca	-0.16067806
38	0x3d4bfe20	0.0498029
39	0xbe3296a2	-0.17440274
40	0x3e8af1f9	0.27137735
41	0x3e21d87c	0.15805238
42	0x3dce6d78	0.10079473
43	0x3e94f1b3	0.29090652
44	0x3d15b356	0.03654798
45	0x3df7c01d	0.120971896
46	0xbd4cf6bd	-0.050039995
47	0xbe8c8f9a	-0.2745331
48	0x3e90842e	0.28225845
49	0x3e45de51	0.19323088
50	0xbdff5af0	-0.12468517
51	0xbe927890	-0.28607607
52	0xbc55fc63	-0.013060662
53	0xbe74b2d5	-0.23896344
54	0xbd64ae33	-0.05583019
55	0x3d1ce50c	0.038304374
56	0x3e7ab1b7	0.24481855
57	0x3ddc39f4	0.10753241
58	0x3e0607f2	0.13088968
59	0x3deb5f37	0.1149277
60	0x3dba50c9	0.0909744
61	0x3d6e68f8	0.058205575
62	0xbd9a9506	-0.07547955
63	0xbdbc7f68	-0.09203988
64	0x3e2c6de6	0.16838798
65	0xbd2e9074	-0.04261823
66	0x3dc0e0db	0.09417888
67	0xbee57b8d	-0.44820824
68	0x3e9ad22b	0.3023847
69	0xbeb18ee2	-0.34679323
70	0x3e6cae9a	0.2311348
71	0x3db1fb15	0.08690468
72	0x3eb01262	0.34389025
73	0x3eb156e5	0.34636608
74	0x3d299cfa	0.04140947
75	0x3e9a1561	0.30094436
76	0xbc09d0bf	-0.008411585
77	0x3e557d5b	0.208486
78	0xbeca6950	-0.39533472
79	0xbe02ef8c	-0.12786692
80	0x3f2ffe02	0.6874696
81	0xbd094db5	-0.033521373
82	0x3c953fe8	0.01821895
83	0x3e2ee4cf	0.17079471
84	0x3ea642b8	0.32472777
85	0xbebe10c8	-0.37122178
86	0x3e0cc7e0	0.13748121
87	0x3cabbce4	0.020964094
88	0x3e2e5795	0.17025597
89	0x3eb131f9	0.3460844
90	0x3ebed47e	0.37271494
91	0x3ea5d793	0.32391033
92	0x3e1fe598	0.15614927
93	0x3ea3ef87	0.32018682
94	0xbd03accf	-0.032147225
95	0xbe67d382	-0.22639278
96	0x3ee0e937	0.4392793
97	0xbe45fb57	-0.1933416
98	0xbda6bfd8	-0.0814206
99	0x3e45204a	0.19250599
100	0x3dfc2e3e	0.123135075
101	0xbe843a53	-0.25825748
102	0x3e2db181	0.16962244
103	0xbe8893e3	-0.2667533
104	0xbe21b2d5	-0.15790875
105	0x3e94056a	0.2891038
106	0x3d9393e4	0.07205942
107	0xbe4b2602	-0.19838718
108	0x3d4dd9d3	0.05025656
109	0xbccc91bd	-0.024971837
110	0x3e9d4346	0.30715388
111	0x3e12d93b	0.1434068
112	0xbcfd3674	-0.030909754
113	0xbe091e50	-0.1339047
114	0x3e3cc599	0.18434753
115	0x3ea83075	0.3284947
116	0x3e171cae	0.14757034
117	0xbe696a1e	-0.22794387
118	0x3db3e937	0.087847166
119	0x3f0a0d2a	0.53926337
120	0xbe5cf0ed	-0.21576281
121	0x3f01fb9e	0.5077456
122	0xbd0526a0	-0.03250754
123	0x3ec5038e	0.38479275
124	0xbeee1626	-0.46501273
125	0xbdeb33c9	-0.114844866
126	0x3e81864e	0.2529778
127	0x3e3d6f99	0.18499602
128	0x3e91a097	0.28442833
129	0xbe35b2f0	-0.1774404
130	0xbc494e2f	-0.012286707
131	0xbdddcadd	-0.10829709
132	0xbd477b26	-0.048701428
133	0xbe5515be	-0.20809075
134	0x3d1b4108	0.037903816
135	0xbde089bd	-0.109637715
136	0xbcb16e93	-0.021659171
137	0x3eac1075	0.33606306
138	0x3e81aee9	0.25328758
139	0xbda71a1a	-0.08159275
140	0x3dbba9ea	0.09163268
141	0xbe57f4ca	-0.21089473
142	0x3d3bd3e5	0.045856375
143	0xbe056fb0	-0.13030887

convolution_2 f4 [16, 1, 1, 16]
0	0x3fa759bb	1.3074259
1	0x3f860fef	1.0473613
2	0x3d7282cf	0.05920678
3	0x3ed44068	0.41455388
4	0x3f1ac744	0.60460305
5	0xbf22618e	-0.63430107
6	0xbe9e06fd	-0.30864707
7	0xbec7fae3	-0.390586
8	0xbf86df1d	-1.0536839
9	0xbf766f22	-0.96263325
10	0x3ef2943c	0.4737872
11	0x3f11b0f5	0.5691064
12	0xbe910995	-0.28327623
13	0x3e95fd2f	0.29294726
14	0xbe90dc19	-0.2829292
15	0x3db1980a	0.08671577
16	0x3e412b05	0.18864067
17	0xbdae31a1	-0.0850556
18	0xbded989b	-0.11601373
19	0xbe2e31fc	-0.17011255
20	0x3d26cdc6	0.040723585
21	0xbe4de67c	-0.20107454
22	0x3e3cf4ce	0.1845276
23	0xbb9218ee	-0.0044585383
24	0x3e9f8418	0.31155467
25	0x3cdcad26	0.026938032
26	0xbd8c8b70	-0.06862533
27	0x3e8ac81d	0.271058
28	0xbd4caf9f	-0.049972173
29	0xbe3febfa	-0.18742362
30	0x3efdf797	0.4960296
31	0xbe7d6382	-0.2474499
32	0xbedd09d8	-0.43171573
33	0xbed2f323	-0.41201124
34	0x3d65d538	0.056111544
35	0xbe0a364a	-0.13497272
36	0xbe034376	-0.12818703
37	0x3e09d843	0.13461404
38	0xbea98894	-0.33112013
39	0x3e5929ce	0.21207353
40	0xbe0aa271	-0.13538529
41	0xbc8735f7	-0.016505225
42	0xbe0b3071	-0.13592698
43	0xbe40e6b3	-0.18838005
44	0xbd834f6c	-0.06411633
45	0xbe56291b	-0.20914118
46	0xbe3f1e78	-0.18663967
47	0xbe4a3cf8	-0.1974982
48	0xbf84f81d	-1.0388218
49	0x3f1c2625	0.60995704
50	0x3ea60270	0.32423735
51	0x3efa8385	0.48928466
52	0xbcf9bd1b	-0.03048568
53	0xbd3d6f25	-0.046248574
54	0xbdf7387e	-0.12071322
55	0x3ebd9968	0.37031102
56	0xbd99b2b7	-0.0750479
57	0xbd7862c4	-0.060641065
58	0xbe31c8b0	-0.17361712
59	0xbe83177f	-0.25603864
60	0xbc77c5f7	-0.015122882
61	0x3da45fc8	0.08026081
62	0xbe7b3209	-0.24530806
63	0x3c2892a0	0.010288864
64	0x3d5e4b17	0.05427083
65	0x3c086c6f	0.008326634
66	0x3f08f407	0.53497356
67	0x3e281c60	0.16417074
68	0x3e5ac51b	0.21364252
69	0xbf1e5bd6	-0.6185888
70	0xbdc8191f	-0.097704165
71	0x3f7b9a44	0.98282266
72	0xbec546e3	-0.38530645
73	0xbf2d9fe0	-0.67822075
74	0xbf126bcc	-0.57195735
75	0x3e9175b8	0.28410125
76	0x3e3212aa	0.17389932
77	0xbf36f591	-0.71468455
78	0x3ee5db0a	0.44893676
79	0x3e00e51c	0.12587398
80	0x3f0c082d	0.54699975
81	0x3d9ce1cd	0.076602556
82	0x3e384f55	0.17999013
83	0x3e2a1f9b	0.16613619
84	0xbdfd5155	-0.123690285
85	0xbeb77057	-0.35827896
86	0x3e842fa0	0.25817585
87	0xbe7640ac	-0.24048108
88	0xbbae5166	-0.005319762
89	0xbf566db7	-0.8376116
90	0xbe104f03	-0.1409264
91	0x3d936f97	0.071990184
92	0x3e7e1738	0.24813545
93	0x3c98b717	0.018641992
94	0x3e9726d3	0.29521808
95	0xbda3162c	-0.07963213
96	0x3e54009a	0.20703354
97	0x3e71fe1b	0.2363209
98	0x3f60a465	0.87750846
99	0x3d49c2ad	0.049257923
100	0xbe408d2c	-0.18803853
101	0x3e5c974d	0.21542092
102	0x3e7dbbc8	0.24778664
103	0x3dd90002	0.105957046
104	0xbebd8f6a	-0.3702348
105	0xbd37496a	-0.044747747
106	0xbf1a4245	-0.6025737
107	0xbe993452	-0.2992273
108	0x3edd61aa	0.43238574
109	0x3ee095bf	0.43864247
110	0xbe4de464	-0.20106655
111	0x3e1b10da	0.15143147
112	0x3ea88240	0.32911873
113	0xbf371e7a	-0.7153088
114	0x3e1c95a6	0.15291461
115	0x3f1d8274	0.6152718
116	0xbe1cca0e	-0.15311453
117	0xbc9676fd	-0.018367285
118	0xbdb8c0b8	-0.09021133
119	0xbebed299	-0.37270048
120	0x3efc1aca	0.49239188
121	0x3e31c379	0.17359723
122	0x3e4499e2	0.19199327
123	0x3f007df6	0.501922
124	0xbdfd992a	-0.12382729
125	0xbe175c8b	-0.14781396
126	0xbee2fc2d	-0.4433302
127	0xbce2c065	-0.027679631
128	0x3eb7433b	0.3579348
129	0xbe5f6436	-0.21815571
130	0x3e5c29c1	0.21500303
131	0xbc94d72b	-0.018169006
132	0x3dc83b1c	0.09776899
133	0x3f065134	0.52467656
134	0x3e41b273	0.18915729
135	0x3e1b49bc	0.15164846
136	0x3ae8070d	0.0017702297
137	0xbe2ce548	-0.16884339
138	0xbd85efe9	-0.065399
139	0x3e307b8e	0.17234632
140	0x3e9533b6	0.29141015
141	0xbe30802c	-0.17236394
142	0xbe0dfb7b	-0.13865463
143	0x3d9f5ce9	0.07781393
144	0x3e972f8e	0.2952847
145	0xbf0536a2	-0.5203649
146	0x3ea57bf4	0.3232113
147	0xbe30fbe1	-0.17283584
148	0xbdf5f5e7	-0.12009793
149	0xbd952456	-0.07282321
150	0x3b795b2b	0.0038048725
151	0x3ec2dc77	0.38058826
152	0x3d8c5682	0.068524376
153	0x3e1fa95b	0.15591948
154	0x3df0032c	0.11719355
155	0x3ece4c4e	0.4029259
156	0xbb7f90d2	-0.0038996232
157	0x3ce4ce0d	0.027930284
158	0x3e3c769f	0.18404625
159	0x3e06efe5	0.1317745
160	0x3e118948	0.14212525
161	0x3eb554dd	0.35416308
162	0x3f145094	0.5793545
163	0x3e69ec46	0.22844037
164	0x3e96e731	0.2947326
165	0xbf629af1	-0.8851767
166	0xbf93da1f	-1.155094
167	0xbdb6fe09	-0.08935172
168	0xbd505648	-0.050863534
169	0xbf35d8b1	-0.7103377
170	0xbeb954e2	-0.36197573
171	0xbf1b04b5	-0.6055406
172	0x3f6fc4b0	0.93659496
173	0xbeec5872	-0.46161228
174	0xbeb96e5b	-0.36217007
175	0xbf2cb06d	-0.67456704
176	0xbe0008cc	-0.12503356
177	0xbd24f2ff	-0.0402708
178	0x3d14ee80	0.036360264
179	0xbaa304cc	-0.0012437343
180	0x3eed8f33	0.46398315
181	0x3e3c282a	0.18374696
182	0xbf2aafcd	-0.666745
183	0xbe9967c4	-0.2996198
184	0xbea69aa0	-0.32539845
185	0xbe0609e9	-0.13089718
186	0xbe9abf5a	-0.30224115
187	0x3e337786	0.17526063
188	0xbf73b8cd	-0.9520386
189	0x3dff1292	0.12454714
190	0xbe43093e	-0.19046494
191	0x3eedf0d6	0.46472806
192	0x3e16c840	0.14724827
193	0xbe857eb2	-0.26073223
194	0xbe0f60f8	-0.14001834
195	0x3ec5359b	0.3851746
196	0xbd3015b6	-0.042989455
197	0x3bbc1627	0.0057399455
198	0xbe07f4c2	-0.13276961
199	0xbf333c47	-0.7001385
200	0xbecf2584	-0.4045831
201	0xbe125bff	-0.14292906
202	0xbdf05b57	-0.11736172
203	0x3f1bf338	0.60918
204	0xbdac7a0c	-0.08421716
205	0xbe12c147	-0.14331542
206	0xbf648240	-0.89261246
207	0xbf72318f	-0.9460687
208	0xbd99e885	-0.07515053
209	0x3eb7b2b6	0.35878533
210	0x3ea02d1e	0.31284422
211	0x3f44bfc4	0.7685511
212	0x3cddd04e	0.027076866
213	0xbecdbc85	-0.4018289
214	0x3e967011	0.29382375
215	0xbeb85049	-0.35998753
216	0xbeae9e89	-0.34105328
217	0xbef41d27	-0.4767849
218	0xbf1dbbfb	-0.6161496
219	0xbf7b10c7	-0.98072475
220	0xbe9128b1	-0.28351358
221	0x3e7d5d70	0.24742675
222	0xbf2af790	-0.66784
223	0x3d4dbd76	0.050229512
224	0x3d294f35	0.041335303
225	0xbcd9f159	-0.026604341
226	0x3e11161e	0.14168593
227	0x3fb75687	1.4323281
228	0xbf44a878	-0.7681956
229	0xbf40c40b	-0.7529914
230	0xbe8718ae	-0.26386017
231	0xbe9108dc	-0.28327072
232	0xbf218f31	-0.6310912
233	0xbe8e54e4	-0.2779914
234	0x3edddcd4	0.4333254
235	0xbeba3d17	-0.36374733
236	0xbeb11af2	-0.3459087
237	0x3f45a710	0.7720804
238	0x3f9dead0	1.2337284
239	0x3f102d49	0.563191
240	0x3f208508	0.6270299
241	0xbf8a9041	-1.0825273
242	0xbf941e9c	-1.1571841
243	0xbed60f8c	-0.41808736
244	0x3ff5983c	1.9187083
245	0xbe14614d	-0.14490242
246	0x3e6d1f6f	0.23156522
247	0xbf55edd3	-0.83566016
248	0x3e6174b0	0.22017169
249	0xbfa3d58d	-1.2799546
250	0x3f4f35cd	0.8094147
251	0x3f8461b3	1.0342315
252	0xbf729f34	-0.94774175
253	0xbfa1147d	-1.2584378
254	0xbef53d7c	-0.4789847
255	0x3f36bc50	0.7138109

depthwise_1 f4 [1, 3, 3, 16]
0	0xbe3c6c42	-0.18400672
1	0xbd9deae3	-0.07710817
2	0xbcb67c87	-0.022276176
3	0x3b811d81	0.0039402847
4	0x3dcbd8d9	0.0995347
5	0x3e52a6c7	0.20571433
6	0x3e581cc6	0.21104726
7	0x3ba5b8a9	0.0050574136
8	0x3d5eb547	0.0543721
9	0xbdb616f9	-0.088911004
10	0xbe4e5c5f	-0.20152424
11	0xbdd8365e	-0.10557245
12	0x3d050cb7	0.03248283
13	0xbb5bf5de	-0.0033563296
14	0xbd73696b	-0.059426706
15	0x3e5a03f7	0.21290575
16	0xbe02c685	-0.12771042
17	0x3d93b170	0.07211578
18	0x3caa84b1	0.020815225
19	0x3f0bee67	0.5466065
20	0xbc60a61b	-0.013711478
21	0x3e295671	0.16536881
22	0xbea4c655	-0.32182565
23	0xbe09dc69	-0.13462986
24	0xbe2be35a	-0.16785946
25	0xbe2eebaf	-0.17082094
26	0xbd0f031b	-0.03491507
27	0xbda48d69	-0.08034784
28	0x3e34fd1c	0.17674679
29	0xbe8a89d1	-0.2705827
30	0xbe5e916e	-0.21735165
31	0x3eb9a8d6	0.36261624
32	0xbe1f4411	-0.15553309
33	0xbebdb998	-0.3705566
34	0x3e0618aa	0.13095346
35	0x3b94796e	0.004531077
36	0x3e4d54c9	0.20051874
37	0x3dcabef8	0.09899706
38	0x3c533f5b	0.012893523
39	0x3d6ed0eb	0.05830471
40	0x3dbb44b1	0.09143961
41	0x3e106839	0.14102258
42	0xbec05fbc	-0.3757304
43	0xbd996608	-0.07490164
44	0xbb3741b3	-0.0027962744
45	0xbe32a941	-0.17447378
46	0x3e13000a	0.14355484
47	0xbc833ddd	-0.01602071
48	0xbdd8cebf	-0.10586309
49	0xbb25f453	-0.002532263
50	0xbdaf0476	-0.08545773
51	0xbdd95986	-0.10612778
52	0x3f04596d	0.5169895
53	0x3e7fe8d2	0.24991158
54	0x3e9bcbd9	0.3042896
55	0xbe36f711	-0.17867686
56	0x3e84a98d	0.25910607
57	0x3d9967c8	0.07490498
58	0xbe44e21b	-0.19226877
59	0xbe2c5bb8	-0.16831863
60	0x3d4584a3	0.048222195
61	0xbdcdcc81	-0.10048772
62	0xbe3f1a82	-0.18662456
63	0x3dab3d48	0.08361298
64	0x3da94229	0.08264572
65	0xbd385164	-0.044999495
66	0xbec89143	-0.39173326
67	0x3e7943d0	0.24342275
68	0x3e83b517	0.25724098
69	0x3ede0318	0.43361735
70	0xbefbb136	-0.4915864
71	0xbe62066b	-0.22072761
72	0x3ddb6b76	0.10713856
73	0xbec3b767	-0.38225862
74	0xbb8cd455	-0.004297773
75	0xbe4e73b6	-0.20161328
76	0xbd991803	-0.07475283
77	0xbe7ec492	-0.24879673
78	0x3e4131af	0.18866609
79	0x3e5d960b	0.21639268
80	0xbeb37e92	-0.35057503
81	0xbd509eb2	-0.050932594
82	0x3e3cec1a	0.1844944
83	0xbe964400	-0.29348755
84	0x3ee71c73	0.45138893
85	0x3ea09a7b	0.3136786
86	0xbe747dcd	-0.23876114
87	0xbe550cb9	-0.20805635
88	0x3d97cf51	0.07412589
89	0x3bdf4cea	0.006814589
90	0xbea66f74	-0.32506907
91	0xbdb686b1	-0.08912409
92	0x3da47436	0.08029978
93	0xbe7d0a0f	-0.24710868
94	0x3d17147d	0.036884774
95	0x3e27d586	0.16390046
96	0x3e5e277c	0.2169475
97	0xbe0f5f38	-0.14001167
98	0xbccec582	-0.025240663
99	0xbd789e3f	-0.06069779
100	0x3ee869e9	0.45393303
101	0x3da5ad14	0.08089653
102	0x3a9665dc	0.0011474448
103	0xbbce9f3b	-0.006305603
104	0x3e541e5b	0.20714705
105	0xbdfd7d3f	-0.123774044
106	0xbdab83c7	-0.08374744
107	0xbe29905f	-0.1655898
108	0x3dafc584	0.08582595
109	0xbe7b0d41	-0.24516775
110	0xbe67acb6	-0.22624478
111	0x3eaa2c23	0.332368
112	0x3e1141d8	0.14185274
113	0x3e6bc822	0.23025563
114	0xbd610598	-0.054936975
115	0x3ea05030	0.31311178
116	0x3e540879	0.20706357
117	0x3e23cbce	0.15995714
118	0x3e09a8ae	0.13443252
119	0xbdcd4a53	-0.10023942
120	0xbf18b7b7	-0.59655327
121	0xbe8e49a8	-0.2779057
122	0x3e0912d4	0.13386089
123	0xbea1cec9	-0.31603077
124	0xbf03ce0b	-0.5148627
125	0xbeda44ab	-0.42630515
126	0xbea5e337	-0.32399914
127	0x3ed5e3fa	0.41775495
128	0x3d66d915	0.05635937
129	0x3c450f66	0.012027597
130	0x3f0afdae	0.54293334
131	0xbea5910b	-0.32337222
132	0x3ed39948	0.41327882
133	0x3e105922	0.14096501
134	0xbd312fa6	-0.04325833
135	0xbe84859e	-0.25883192
136	0xbe26b4a5	-0.16279848
137	0x3ea53367	0.3226578
138	0xbe58069b	-0.2109627
139	0xbdbed34b	-0.09317645
140	0xbe40b3e8	-0.18818629
141	0xbe7a5f43	-0.24450402
142	0xbe415aa8	-0.18882239
143	0x3d97763c	0.07395598

convolution_3 f4 [16, 1, 1, 16]
0	0x3e150a41	0.14554693
1	0x3de01464	0.10941389
2	0xbdeffa8b	-0.11717709
3	0x3d0a3d57	0.033749904
4	0x3ec5c614	0.38627684
5	0x3f2e90a0	0.6818943
6	0xbe1857c6	-0.14877233
7	0xbf08749a	-0.5330292
8	0xbe79bde9	-0.24388851
9	0xbda05cf2	-0.07830228
10	0xbf3b8510	-0.7324991
11	0x3eb43ceb	0.35202727
12	0xbddf75df	-0.10911154
13	0x3f72198e	0.94570243
14	0xbf054f42	-0.5207406
15	0xbe8a0c58	-0.26962543
16	0x3e0c1bfd	0.13682552
17	0x3e90432e	0.28176254
18	0x3f3b433f	0.73149484
19	0x3e1e5729	0.15462936
20	0xbf1fe67f	-0.62461084
21	0xbf364661	-0.7120114
22	0x3ee543a1	0.4477816
23	0x3eff6c93	0.49887523
24	0x3ed566d3	0.4168001
25	0x3db5468e	0.08851348
26	0xbec61129	-0.38684967
27	0x3fd50ae1	1.6643945
28	0xbd704954	-0.05866368
29	0xbdaf5ce8	-0.08562642
30	0x3e8d9db5	0.27659383
31	0x3eae4955	0.34040323
32	0xbd7745f7	-0.060369458
33	0x3eccc143	0.39991197
34	0x3f200580	0.6250839
35	0x3ea9c498	0.33157802
36	0x3e79147b	0.24324219
37	0x3e6ea909	0.2330667
38	0x3ec6fef6	0.38866395
39	0x3f31bbb8	0.6942706
40	0x3e08d07f	0.13360785
41	0x3dded304	0.10880092
42	0x3e6acc6c	0.22929543
43	0x3ccd5bca	0.025068182
44	0xbdd66b48	-0.10469681
45	0xbedc1fd9	-0.42993048
46	0x3de5e251	0.11224807
47	0xbea5d8a7	-0.32391855
48	0x3e1fda73	0.15610676
49	0xbe908c92	-0.28232247
50	0xbdef716c	-0.116915554
51	0xbec296ef	-0.38005778
52	0xbf623970	-0.8836889
53	0x3e100b88	0.14066899
54	0xbe827fa9	-0.25488022
55	0x3d3a8c62	0.045544036
56	0x3ec92c00	0.39291382
57	0x3dce05cf	0.10059702
58	0xbeda2f34	-0.42614138
59	0xbdd261b9	-0.10272545
60	0x3f5df487	0.86701244
61	0xbf10c578	-0.56551313
62	0xbd242182	-0.040071018
63	0xbde653fa	-0.11246486
64	0x3e6b0fb3	0.22955208
65	0xbe0d64b9	-0.13807954
66	0x3f2dcbfa	0.6788937
67	0x3f551680	0.8323746
68	0xbed68b9c	-0.41903389
69	0x3ef58dca	0.4795974
70	0x3e89c4d0	0.2690797
71	0x3bdd7ab1	0.0067590107
72	0x3f7721d6	0.96536005
73	0x3ef823a8	0.48464704
74	0x3e40555d	0.18782564
75	0xbe25d26c	-0.16193551
76	0xbf26b393	-0.6511776
77	0x3f200275	0.6250375
78	0xbea12997	-0.31477043
79	0xbf242462	-0.64118016
80	0xbe97f35d	-0.2967786
81	0xbd641bf1	-0.05569071
82	0xbead398f	-0.33832976
83	0x3e910176	0.28321427
84	0xbf3775de	-0.71664226
85	0xbd9479a8	-0.072497666
86	0xbf8e385f	-1.1110953
87	0x3e560089	0.20898642
88	0x3f107e38	0.56442595
89	0xbef23219	-0.47303846
90	0x3e9e08c3	0.3086606
91	0xbe1e127b	-0.15436737
92	0x3d1c61a2	0.038179047
93	0x3d03e3fb	0.03219984
94	0x3e7b8a52	0.24564484
95	0xbe50479c	-0.20339817
96	0xbe7bb2da	-0.24579945
97	0xbf2935d5	-0.66097766
98	0x3f2d3b46	0.6766857
99	0x40124bba	2.285872
100	0xbec4ba8e	-0.3842358
101	0x3f243a72	0.6415168
102	0xbef02622	-0.46904093
103	0xbde75047	-0.112946086
104	0x3ead19ae	0.33808655
105	0x3c5c9268	0.01346264
106	0x3f4cb9cc	0.79971004
107	0xbe7188df	-0.23587368
108	0x3e8dd54a	0.2770179
109	0xbed8addb	-0.4232014
110	0xbf88e278	-1.0694113
111	0xbe7ab0f9	-0.24481572
112	0xbefd77b7	-0.49505398
113	0x3ee5aa79	0.44856623
114	0x3e319fbc	0.1734609
115	0xbfb1b052	-1.3881934
116	0x3ef520b7	0.47876522
117	0xbf7c7f8a	-0.9863211
118	0x3ed73bd7	0.42037842
119	0xbe57d32b	-0.21076648
120	0xbf8141f6	-1.0098255
121	0xbe066ef0	-0.13128257
122	0xc067bf4c	-3.6210508
123	0x40037e76	2.0545936
124	0xbd939f59	-0.072081275
125	0x3f94db7b	1.162948
126	0x3e3e27cb	0.18569867
127	0xbea692d7	-0.32533905
128	0xbe069da5	-0.13146074
129	0x3d9ebb3c	0.07750556
130	0x3eaeaf02	0.34117895
131	0x3ea496b7	0.32146236
132	0xbf00d86e	-0.50330245
133	0xbf9e9308	-1.238862
134	0xbe15ebc4	-0.14640719
135	0x3e0dd453	0.13850527
136	0xbe9f2909	-0.31085995
137	0x3e32f95f	0.1747794
138	0x3e9c1486	0.30484408
139	0xbc868403	-0.01642037
140	0x3dc39855	0.095505394
141	0xbe82c6d2	-0.25542313
142	0xbbeb28eb	-0.0071765087
143	0x3e37c3be	0.17945763
144	0xbe576c77	-0.2103747
145	0xbf39431c	-0.72368026
146	0xbecb05eb	-0.39652953
147	0xbe62a772	-0.22134188
148	0x3df1f42f	0.118141524
149	0xbd88fddd	-0.066890456
150	0x3ca44f0e	0.020057227
151	0x3e78643a	0.24256983
152	0xbe99b3f1	-0.30020097
153	0xbebd1e1a	-0.36937028
154	0xbec94b4c	-0.3931526
155	0xbec4f5c8	-0.38468766
156	0xbdc98b93	-0.09841075
157	0x3e93008d	0.28711358
158	0x3f5980e1	0.8496228
159	0xbe5514fe	-0.20808789
160	0xbf6e5f7d	-0.93114454
161	0xbdcb79df	-0.099353544
162	0xbe31f182	-0.17377284
163	0x3e22fab6	0.15915951
164	0xbe996b4e	-0.2996468
165	0x3e3755a7	0.17903768
166	0x3c112a74	0.008860219
167	0x3db5a078	0.088684976
168	0x3e4ea17c	0.20178789
169	0x3d70f541	0.058827642
170	0xbf0c5167	-0.5481171
171	0x3b42c72c	0.0029720766
172	0xbecc3de9	-0.39890984
173	0xbe1c8893	-0.15286474
174	0x3d887488	0.066628516
175	0xbe8d187f	-0.27557752
176	0x3ddfa51d	0.10920165
177	0x3e9b9aae	0.3039145
178	0x3f32597f	0.6966781
179	0xbe498c57	-0.19682442
180	0xbf503d22	-0.8134328
181	0xbfb2da6c	-1.3972907
182	0x3f9206aa	1.1408284
183	0x3f1fcbab	0.6242015
184	0x3f410ea5	0.7541297
185	0x3eeb482a	0.45953494
186	0x3f6a17ef	0.9144277
187	0x3f83c9ce	1.0295961
188	0xbf0c2f7d	-0.5475996
189	0x39d9d2fc	0.0004154666
190	0x3db67e88	0.08910853
191	0x3f21fc0f	0.63275236
192	0x3e5767e0	0.21035719
193	0x3ce1ab10	0.02754739
194	0xbf69bbe8	-0.9130235
195	0xbe5cdb0b	-0.21567933
196	0x3de8ca66	0.113667294
197	0xbf2d7f91	-0.67772776
198	0xbf1a54cc	-0.6028564
199	0xbee50428	-0.44729733
200	0xbf051859	-0.51990277
201	0xbef43a35	-0.47700658
202	0xbeaed069	-0.3414338
203	0xbfb263ae	-1.393667
204	0x3f1cae96	0.61203897
205	0x3f29ef03	0.6638033
206	0xbf29feaa	-0.6640421
207	0xbb8b0496	-0.00424249
208	0xbe80cd8d	-0.25156823
209	0xbe47ece1	-0.19523956
210	0x3f5473d5	0.82989246
211	0x3eeb8a65	0.46004024
212	0x3f14fe8c	0.5820091
213	0xbeac0633	-0.3359848
214	0xbe9f4551	-0.31107572
215	0xbcccc7d3	-0.024997627
216	0x3e490609	0.19631208
217	0x3e4c057f	0.19923972
218	0x3f6fb72d	0.9363888
219	0x3ee451e0	0.44593716
220	0x3e48a16a	0.19592825
221	0xbf07efca	-0.53100264
222	0x3e9136bd	0.28362074
223	0xbf0b20ab	-0.5434672
224	0xbc40ad38	-0.011760049
225	0x3d8939f5	0.067005076
226	0xbf12535e	-0.5715846
227	0xbdd655f6	-0.104656145
228	0xbea0aa70	-0.31380033
229	0xbee4a00e	-0.44653362
230	0x3eea1624	0.45720017
231	0xbd90c025	-0.07067899
232	0xbff892ce	-1.9419801
233	0xbdbc39cd	-0.09190712
234	0x3e0eeca0	0.13957453
235	0xbe9abb29	-0.30220917
236	0xbeab0d91	-0.33408788
237	0x3d008cea	0.031384386
238	0x3d177da2	0.036985047
239	0xbeb66ef5	-0.35631528
240	0xbe1e5be5	-0.15464742
241	0x3c1154c3	0.008870306
242	0x3ec04e29	0.3755963
243	0xbe904b20	-0.28182316
244	0x3ec52446	0.38504237
245	0xbd3a4d8a	-0.045484103
246	0xbd692a1c	-0.056924924
247	0xbdc62f4b	-0.09676989
248	0xbe1a03b3	-0.15040474
249	0xbcb0d07c	-0.021583788
250	0xbed29fbf	-0.41137502
251	0x3e5598ad	0.20859022
252	0x3e3e0a03	0.18558507
253	0x3f6e5d00	0.93110657
254	0x3e123270	0.14277053
255	0xbf2f5f6c	-0.6850498

depthwise_2 f4 [1, 3, 3, 16]
0	0x3cb3b396	0.02193622
1	0xbe06f553	-0.13179521
2	0xbd8eab22	-0.06966235
3	0xbe897e03	-0.26853952
4	0xbddb082d	-0.10694919
5	0xbddbdb4a	-0.107351854
6	0x3e0a2601	0.1349106
7	0x3c7efb30	0.015562817
8	0xbd1e1966	-0.03859844
9	0x3dbc002a	0.09179719
10	0xbdd392a7	-0.10330706
11	0x3e41c548	0.18922913
12	0xbddc7c57	-0.107659034
13	0x3dd65b6f	0.10466658
14	0x3a90915f	0.0011029652
15	0xbbc584f8	-0.006027814
16	0x3ca51429	0.020151215
17	0xbe3392fe	-0.17536542
18	0xbe389d80	-0.18028831
19	0xbddf4f9c	-0.10903856
20	0x3e95765c	0.29191864
21	0xbee21da2	-0.44163233
22	0x3e64e9e2	0.22354844
23	0x3d34a7c5	0.04410531
24	0xbe8b96f7	-0.27263615
25	0x3f2cf327	0.6755852
26	0x3e2e9b64	0.17051464
27	0x3dca6a1d	0.09883521
28	0x3d9b2730	0.07575834
29	0xbe07b6f1	-0.1325338
30	0xbdd9e849	-0.10640008
31	0x3e197de3	0.14989428
32	0x3d8fc706	0.070203826
33	0xbf0b52ad	-0.5442303
34	0xbe2544dd	-0.1613955
35	0x3ceda36b	0.029008588
36	0x3cd198dd	0.025585586
37	0xbf1e48b0	-0.6182966
38	0xbccb893c	-0.024845712
39	0xbec0a231	-0.37623742
40	0x3d6a1fd1	0.05715925
41	0xbf313b58	-0.69231176
42	0x3e20449e	0.15651175
43	0xbd15a1fa	-0.036531426
44	0x3e963904	0.29340374
45	0xbdb0dfe1	-0.086364515
46	0xbdd3e4e3	-0.10346391
47	0xbe3d4bc8	-0.1848594
48	0x3e1e8191	0.15479113
49	0xbe10498d	-0.14090557
50	0xbe4abd15	-0.19798692
51	0xbeb6375a	-0.35589105
52	0x3e2d86ce	0.16945955
53	0xbd227831	-0.039665405
54	0x3cdf96d3	0.027293598
55	0xbdf4206a	-0.11920245
56	0xbe675b9f	-0.22593544
57	0x3ddb12c0	0.10696936
58	0x3e4dab08	0.20084774
59	0xbeaab5cf	-0.33341834
60	0x3e327d39	0.17430581
61	0x3e53e179	0.2069148
62	0x3ea2bea9	0.31786087
63	0xbe8982f0	-0.2685771
64	0x3de347ae	0.11097656
65	0xbe677f90	-0.22607255
66	0xbe4bd14a	-0.19904056
67	0xbdba9bb8	-0.09111732
68	0x3e982611	0.29716542
69	0xbd95e8b3	-0.073197745
70	0x3d49399a	0.0491272
71	0xbd5aa2e4	-0.053378
72	0xbe717ee2	-0.23583558
73	0x3e7924a5	0.24330385
74	0x3dac55f4	0.08414832
75	0xbe9ef488	-0.31045938
76	0xbea96a4d	-0.33088914
77	0x3e9d0858	0.30670428
78	0x3ea35a65	0.31904903
79	0xbdb0fb07	-0.0864163
80	0x3e4ad81d	0.19809003
81	0xbf12b62b	-0.57309216
82	0xbe51abca	-0.20475689
83	0xbd65fc4d	-0.056148816
84	0x3e1377d6	0.14401183
85	0xbd47970e	-0.04872804
86	0xbdf5fe60	-0.12011409
87	0xbcc590c1	-0.024116876
88	0xbec40817	-0.38287422
89	0x3dd8efb4	0.10592595
90	0x3e6f9da9	0.23399986
91	0xbe60e9c3	-0.21964173
92	0xbdc1ca6d	-0.09462438
93	0xbe84ce68	-0.25938725
94	0x3e763b31	0.24046017
95	0xbf2bccae	-0.6710919
96	0xbc9e1d00	-0.019300938
97	0xbdedda7c	-0.11613938
98	0xbef32295	-0.47487321
99	0xbe51e2a8	-0.20496619
100	0x3ebf8ea3	0.3741351
101	0xbe6626d2	-0.22475746
102	0x3e7557f8	0.23959339
103	0xbe9aa290	-0.3020215
104	0xbe60878d	-0.21926709
105	0xbe3ed3f4	-0.18635541
106	0x3e2d04a5	0.16896303
107	0xbe8303d5	-0.2558886
108	0xbd143ca5	-0.036190648
109	0xbe02c244	-0.12769419
110	0x3eb698a0	0.3566332
111	0xbe1d7b04	-0.15378958
112	0x3d89a5a9	0.0672105
113	0xbe465671	-0.19368912
114	0xbec9d203	-0.3941804
115	0x3e8b604e	0.27221912
116	0x3eaf669a	0.34257966
117	0xbc888bde	-0.016668256
118	0x3ddeb7e6	0.108749196
119	0x3dba929c	0.09109995
120	0xbebaa5ca	-0.36454612
121	0x3d274006	0.040832542
122	0x3e55ca57	0.20877968
123	0xbf117697	-0.5682158
124	0xbe1c8406	-0.15284738
125	0xbc31bd18	-0.010848306
126	0xbe36ee67	-0.17864381
127	0x3bac0a8f	0.005250282
128	0x3d424ae2	0.047434695
129	0xbead8892	-0.33893257
130	0xbebc72bd	-0.36806288
131	0x3dd5026c	0.104008526
132	0x3e31f882	0.17379954
133	0xbe8d860f	-0.2764134
134	0xbd2e068a	-0.042486705
135	0x3e1363a6	0.14393482
136	0x3e2a949a	0.1665825
137	0x3e48a4f5	0.19594176
138	0x3e27c628	0.16384184
139	0xbe8a2a3e	-0.26985353
140	0xbe1a01bd	-0.15039726
141	0xbeb1ec28	-0.34750485
142	0xbde5e0dd	-0.1122453
143	0xbeffb15b	-0.4994

convolution_4 f4 [16, 1, 1, 16]
0	0xc0c297ca	-6.081029
1	0xbf66cdc4	-0.90157723
2	0xc134a391	-11.289933
3	0xc02b06a3	-2.67228
4	0x3ffcdd5e	1.9755056
5	0x412035a9	10.013101
6	0xc0182bb2	-2.377667
7	0xbfb82ec9	-1.4389278
8	0x40e2707f	7.0762324
9	0xc01a5f68	-2.4120731
10	0x40f09212	7.517831
11	0x41251fd9	10.320275
12	0xbf80dc55	-1.006724
13	0xc1152cf7	-9.323478
14	0x3df24edc	0.118314475
15	0xc12683d7	-10.407187
16	0xc01e1015	-2.4697316
17	0x40a990ed	5.298941
18	0xc07b0d2e	-3.9226794
19	0x41263576	10.388052
20	0x402e77b9	2.7260573
21	0xc0f6a9a1	-7.7082067
22	0x409bbf8a	4.867131
23	0x3db89331	0.090124495
24	0x40101f18	2.2518978
25	0x401ebd80	2.4803162
26	0x405e7278	3.4757366
27	0xc00753c8	-2.1144886
28	0x406e65be	3.7249599
29	0x40b11663	5.5339828
30	0xc05281ea	-3.2891793
31	0x40529702	3.2904668
32	0x3fd316fb	1.6491388
33	0xc1238661	-10.220307
34	0x40caa8bd	6.333098
35	0xc09e739c	-4.9516125
36	0xc01e4d37	-2.4734628
37	0xc06a5a6a	-3.6617684
38	0xc029445f	-2.644798
39	0x3e416e50	0.18889737
40	0xc02cc752	-2.6996655
41	0xbfaa1bd4	-1.3289742
42	0xc07e8c8b	-3.977328
43	0xc049e50c	-3.154605
44	0x3dc5aa08	0.096515715
45	0xbd372d44	-0.044720903
46	0x407b4644	3.9261637
47	0x408df037	4.435573
48	0x3d695450	0.056965172
49	0x406df9fb	3.7183826
50	0x3f188c12	0.5958873
51	0x40e6ff06	7.218631
52	0x40878a29	4.2356153
53	0x3f79b7c4	0.9754603
54	0x410fd568	8.989601
55	0xbcb7474a	-0.02237286
56	0x3fdf0d8c	1.7426009
57	0x40a07f5c	5.015547
58	0xbf830656	-1.0236309
59	0x4075d426	3.8410735
60	0x4015a4f1	2.3381922
61	0x3f286fb1	0.6579543
62	0x40937c42	4.608918
63	0xc0be1580	-5.9401245
64	0xbf1f164b	-0.6214339
65	0x40f02b87	7.5053134
66	0xc0c54134	-6.1642094
67	0x409e05cf	4.938209
68	0x3fc064b6	1.5030735
69	0xbf8d5e02	-1.1044314
70	0x4100b8ee	8.045149
71	0x4021f647	2.5306566
72	0xbf0d4fbd	-0.55199796
73	0x3fd43c69	1.6580936
74	0x40342261	2.8145983
75	0x3e9270ac	0.28601587
76	0x407ca3a6	3.9474883
77	0x408a5377	4.3226886
78	0xbe49de0d	-0.19713612
79	0xc01aa459	-2.416281
80	0x4006969b	2.1029422
81	0xc14240c9	-12.140817
82	0x40f1c085	7.554751
83	0xc0a440b5	-5.132899
84	0xc02a2f9a	-2.6591554
85	0xc093fffa	-4.624997
86	0xc04075d8	-3.0071926
87	0x3e28503f	0.16436861
88	0xc003fbc8	-2.0622425
89	0xbfaa3dad	-1.3300072
90	0xc099a91c	-4.801893
91	0xc067b106	-3.6201797
92	0x3e7717dc	0.24130195
93	0x3e692b0b	0.22770326
94	0x40916dd4	4.5446568
95	0x40954c7e	4.6655874
96	0x3ffd88dc	1.9807391
97	0xc14cc4ed	-12.798078
98	0x40f766a1	7.731278
99	0xc0a10acf	-5.0325694
100	0xc017a2fe	-2.3693233
101	0xc09845ce	-4.758521
102	0xc03d01d4	-2.9532366
103	0x3eba50e6	0.36389846
104	0xc015a922	-2.338448
105	0xbfbc4a85	-1.4710242
106	0xc091f5bc	-4.561247
107	0xc0594bfe	-3.3952632
108	0x3eabd2f3	0.3355938
109	0x3eadb53d	0.33927336
110	0x40946d91	4.638375
111	0x4086875a	4.2040224
112	0xc0181bd8	-2.3766994
113	0xc0b98167	-5.797046
114	0x409ee8af	4.9659038
115	0x40312e62	2.768456
116	0x40bddaac	5.9329433
117	0x3fd567d7	1.6672314
118	0xc0c0ea65	-6.0286126
119	0x40141b3e	2.3141627
120	0x4144d2df	12.301482
121	0x40c709e6	6.2199583
122	0x40095d6a	2.1463265
123	0xbf12c372	-0.57329476
124	0xc09a586d	-4.823294
125	0xc093d0d9	-4.619244
126	0xc134b1d2	-11.293413
127	0x415e2552	13.884111
128	0xc09e0178	-4.9376793
129	0xbeaf90b4	-0.34290087
130	0xc040141b	-3.0012271
131	0xbe799b6a	-0.24375692
132	0x40191974	2.3921785
133	0x40a6a0d0	5.2071304
134	0xbfbcb9e8	-1.4744234
135	0xc01da8f5	-2.4634373
136	0x4100e133	8.05498
137	0x3ffc2f96	1.9702022
138	0x4054a012	3.32227
139	0x40d883a9	6.766072
140	0xbff94000	-1.9472656
141	0xc0ff54a6	-7.979083
142	0x3fdfb87d	1.7478176
143	0xc0ecdae6	-7.401721
144	0xc1026492	-8.149553
145	0x3e89f12c	0.26941812
146	0xc107ced1	-8.487992
147	0x3efac180	0.48975754
148	0x40640a93	3.5631454
149	0x40e77290	7.2327347
150	0x3fc7af18	1.5600309
151	0xc00009bf	-2.0005949
152	0x409e53a6	4.947711
153	0x401e665b	2.4749973
154	0x40d3c048	6.617222
155	0x4113b1a7	9.230872
156	0xbff9d0f4	-1.9516892
157	0xc10f496d	-8.955426
158	0xbfeaa4ed	-1.8331581
159	0xc1396bec	-11.588848
160	0xc0e75847	-7.229526
161	0x40871572	4.221368
162	0xc0ec1e26	-7.37868
163	0x3f1dd8e8	0.616591
164	0x406c5485	3.6926587
165	0x40b38ecc	5.6111813
166	0x4009eebf	2.155197
167	0xbe93f82b	-0.28900275
168	0x400c1dd0	2.1893196
169	0x4097fd29	4.7496533
170	0x4030cd57	2.762533
171	0x403ee91e	2.9829783
172	0xbf9e0385	-1.2344824
173	0xc0cbe19b	-6.3712897
174	0xc01b848f	-2.4299657
175	0xc0c0d936	-6.026515
176	0xc04dc4b9	-3.215132
177	0xbfb4f820	-1.4138222
178	0xc0a27cea	-5.0777483
179	0x3f8ed8d2	1.1159918
180	0x4044cd5a	3.0750337
181	0x40ee5521	7.4478917
182	0x3f96c69e	1.1779363
183	0xc00fe4ad	-2.2483323
184	0x4127c8fd	10.486569
185	0x3f98220a	1.1885388
186	0x3f976d77	1.1830281
187	0x4122e9dc	10.182095
188	0xbfafec5f	-1.374401
189	0xc114d31a	-9.301538
190	0x405a7f24	3.41401
191	0xc141a0a8	-12.101723
192	0xc0102261	-2.2520983
193	0x409ee23c	4.9651165
194	0xc072ffab	-3.7968547
195	0x410c9fb9	8.788995
196	0x406fed94	3.7488756
197	0xbe17444a	-0.14772144
198	0x40d23155	6.568522
199	0x3ffa4d6b	1.9554876
200	0xbf286da7	-0.65792316
201	0x40de0174	6.9376774
202	0x3f66788b	0.90027684
203	0x4065ab4e	3.5885806
204	0xc02c957d	-2.696624
205	0xc05457e4	-3.3178644
206	0xc101bdec	-8.108868
207	0xc0db6d53	-6.8570952
208	0x3f9d46db	1.2287248
209	0x4134c1a2	11.297274
210	0xc11f7b7a	-9.967646
211	0x3fff6e4f	1.9955539
212	0xbfa72466	-1.3057983
213	0x408b28f4	4.348749
214	0xc0641731	-3.5639155
215	0xc12ac624	-10.673374
216	0xbf34df1e	-0.7065295
217	0x3f9e14e0	1.235012
218	0x40a95419	5.291516
219	0x408c9fc5	4.394503
220	0x40699c92	3.6501813
221	0xc0e17532	-7.045556
222	0x411f260a	9.946787
223	0x401a3c0f	2.4099157
224	0x3ff2faf7	1.8982838
225	0xc1500c28	-13.002968
226	0x40f72bbb	7.724088
227	0xc09ca09b	-4.894605
228	0xc00f399f	-2.237892
229	0xc08d1506	-4.4088163
230	0xc036a643	-2.8538978
231	0x3e9f5cf2	0.311256
232	0xc0157098	-2.3349972
233	0xbfb8b422	-1.4429972
234	0xc08b2d22	-4.3492594
235	0xc05044c3	-3.254197
236	0x3e9f39d4	0.31098807
237	0x3e77b587	0.24190341
238	0x40909959	4.518719
239	0x40849de0	4.144272
240	0xc0756568	-3.8343143
241	0x3f900638	1.1251898
242	0xbe861c97	-0.26193687
243	0x3f8fac7b	1.1224512
244	0x4091422c	4.5393276
245	0xbf22d213	-0.636018
246	0xbe9df6d5	-0.3085238
247	0x4073da45	3.810197
248	0x401a066a	2.4066415
249	0x40c01098	6.0020256
250	0x4008b62d	2.1361191
251	0x3f30f509	0.69123894
252	0xc07e4759	-3.9731047
253	0xc0128267	-2.2892091
254	0xc17d1906	-15.818609
255	0xc0a27de6	-5.0778685

Add_3;convolution_4;depthwise;Const_11 f4 [16]
0	0x3ebe9c5f	0.37228677
1	0x3d3f8a15	0.046762545
2	0x3d807942	0.06273128
3	0x3e15857f	0.14601706
4	0x3e21b2dc	0.15790886
5	0x3d94a132	0.07257308
6	0x3ee51e4d	0.4474968
7	0x3d8f72f7	0.0700435
8	0xbcef23c8	-0.029191867
9	0x3e9aa036	0.30200356
10	0x3e84f625	0.25969043
11	0xbdf06d58	-0.11739606
12	0x3d1d5093	0.03840692
13	0x3ca6a2a7	0.02034123
14	0x3d01914d	0.03163271
15	0xbe4b8ed0	-0.19878697

Add_5;convolution_4;depthwise_1;Const_15 f4 [16]
0	0xbcbcaa16	-0.023030322
1	0x3d6ae77e	0.057349674
2	0xbe64e627	-0.22353421
3	0x3e89e4f4	0.2693249
4	0x3b019a63	0.001977586
5	0x3ec0b73c	0.37639797
6	0x3eed27b4	0.46319354
7	0x3e7f9c4f	0.24961971
8	0x3e8cec57	0.27524063
9	0x3e7e55b2	0.24837378
10	0xbea2ef5c	-0.31823242
11	0xbe87fad4	-0.26558554
12	0xbe34660b	-0.17617051
13	0xbdd082c7	-0.10181194
14	0xbe0a2bcf	-0.13493274
15	0xbd944da1	-0.07241369

Add_7;convolution_4;depthwise_2;Const_19 f4 [16]
0	0xbb890be0	-0.004182324
1	0x3e3f535e	0.18684146
2	0xbe70cb86	-0.23515138
3	0xbe8576b3	-0.26067123
4	0xbe0bcbb7	-0.1365193
5	0xbeb032ef	-0.3441386
6	0xbe27244c	-0.1632244
7	0xbe29c3f3	-0.16578655
8	0xbe3345cb	-0.17507093
9	0x3d0d8a80	0.034555912
10	0xbe9e9b95	-0.30978075
11	0x3db51932	0.08842696
12	0xbe9c1d3b	-0.3049105
13	0xbda8458e	-0.082163915
14	0x3e97f98a	0.2968257
15	0xbe1f1e25	-0.15538843
