recovery/root/odm/variant/dada/odm/firmware/film_model.tflite (tflite, 18020 bytes, 8 tensors)

fc1/bias f4 [3]
00000000: 5c62 e03d f456 843e 6625 e6be
0.109562606 0.2584759 -0.44950408

sequential/relu0/Relu;sequential/bn0/FusedBatchNormV3;ftr0/bias;sequential/ftr0/BiasAdd;sequential/ftr0/Conv2D f4 [8]
00000000: 4301 9d3e e394 ad3e ae76 58be 775c 43be
00000010: ce16 173f e579 043f b568 ccbd a247 01be
0.30665025 0.33902654 -0.21139023 -0.19078241 0.5901917 0.51748496 -0.09980909 -0.12624982

sequential/relu1/Relu;sequential/bn1/FusedBatchNormV3;ftr1/bias;sequential/ftr1/BiasAdd;sequential/ftr11/Conv2D;sequential/ftr1/Conv2D f4 [16]
00000000: ab96 c4bf bab3 513f fec7 da3e 4701 2240
00000010: 66e3 b53f 1a90 f83e 2dce 1fc0 a60c b83f
00000020: 0293 d13e 8a00 3e3f 86d6 633f b323 df3f
00000030: 6c6b 293f 4494 1ebe 7e60 22c0 b456 d53f
-1.535848 0.81914866 0.42730707 2.531328 1.4210021 0.4854744 -2.496959 1.437886
0.4093247 0.7421957 0.8899921 1.743277 0.6617954 -0.15486246 -2.5371394 1.6667085

sequential/relu2/Relu;sequential/bn2/FusedBatchNormV3;ftr11/bias;sequential/ftr11/BiasAdd;sequential/ftr11/Conv2D f4 [16]
00000000: a6fa a441 572e 6dc1 e045 8841 a60d 7a41
00000010: 22ce 5641 0acd a841 6e96 6fc1 64af 25c1
00000020: 0872 25c1 e9cd 2b41 7ad0 7041 27b4 71c1
00000030: 1f4a 9541 7998 9d41 5ec1 22c1 cd5e 6041
20.622387 -14.823813 17.034119 15.628332 13.425325 21.100117 -14.974226 -10.35532
-10.34034 10.737771 15.050898 -15.1064825 18.661192 19.69945 -10.172209 14.023145

sequential/fc1/MatMul f4 [3, 16]
00000000: 2456 5dbf 5e2b 873e 5db4 a3bf 58ce 9d3e
00000010: 1421 cfbf ee2b 74bf eff6 253f 3392 ab3f
00000020: 8ddb ce3f 601b c4bf 6dd3 c4bf 3786 bc3f
00000030: c8b7 88bf d5a5 83bf f2df 9d3f 3376 d9bf
00000040: fa8c 38bf e2c2 bf3e abe9 e03d 29b3 5cbf
00000050: c119 863f 3a4e 89bf 5616 4f3f 91d1 0cbf
00000060: 00fb e7be ba4a a83f e6ca a73e ecea 1bbf
00000070: 1ac0 aebd f33d 31bf 3534 e7be 6470 383f
00000080: 2a49 ca3f 26ee 21c0 a0c0 a73f 5231 a63f
00000090: 5e98 3c3f ff9d a13f 852a 11c0 5e82 12c0
000000a0: 5c63 f9bf 531f d93e 2dbe a63f 3e43 e6be
000000b0: 9054 ae3f 8aa2 c23f 39d4 1ec0 8e44 5b3f
-0.86459565 0.26400274 -1.2789418 0.3082149 -1.618197 -0.9537953 0.64829916 1.3403991
1.6160752 -1.5320854 -1.5377022 1.4728459 -1.0681086 -1.0284983 1.2333968 -1.6989197
-0.72090113 0.3745337 0.10982069 -0.86210877 1.047661 -1.0726998 0.80893457 -0.5500727
-0.45308685 1.3147805 0.32771987 -0.6090534 -0.08532734 -0.6923515 -0.45157018 0.72046494
1.5803578 -2.5301604 1.310566 1.2983801 0.73669994 1.2626342 -2.2682202 -2.289207
-1.9483447 0.4240671 1.3026787 -0.44973177 1.3619556 1.5205853 -2.481703 0.8565148

sequential/ftr0/Conv2D f4 [8, 5, 5, 1]
00000000: 9557 0a3b 4b87 413b 54f0 99bb 9fad e63a
00000010: b074 9cbb ac1a 8e3b 19e5 eebb df6b 88bb
00000020: c474 263c 6d84 283b 4bda 35bb c729 66ba
00000030: 07d8 8f3a 969b 19ba 3fec 5cba 77b3 1ebc
00000040: 225b 71ba 21bd 34ba 7ab0 f0ba fd0e debb
00000050: 7307 7dba 5b86 bd3b 00b3 f3ba 8ed3 a6bb
00000060: 66fe d03b f204 12bb 8a72 58bc 9f70 033b
00000070: 800f 91b9 0486 303b 8f08 98bb 61f1 ab3b
00000080: 3e09 24bb 9ce0 bb3b ad72 79bc 4749 003b
00000090: ccc9 f0bb 26b4 c43b 9850 8dbb 7356 73bb
000000a0: 6bf9 b7ba e403 293c 9fea f2bb 4304 6ab8
000000b0: 1b7f fd3b b4f8 8cbb 4787 b53a 02b6 4c3b
000000c0: 880a 09bb e239 d9bb 3a24 e7ba 0fae 53bb
000000d0: 2660 3c39 aec8 2cba 4ce8 abba 30e3 77bb
000000e0: baee a1bb 9752 1fba e2b2 743b cdcc afba
000000f0: d5a5 efba 8eea 27bb 8437 023b 14c2 c13a
00000100: 39ce 523b 8671 f03a 7143 f739 4977 e1ba
00000110: 67b3 3f3b a77c 3abb 339e 433a bad8 e43a
00000120: a083 953b ceed 62ba bf26 82b8 0207 0abb
00000130: 7934 c93b 263b a339 154c 3eba 3992 db3b
00000140: 3b06 33bb 9072 743a 5aff 63ba 4be8 193c
00000150: 5601 b3bb 54e6 4a3b 1a33 cbbb 38ec e9b9
00000160: 54da bcbb a5b4 1b3b 02a8 593b 5f92 35bc
00000170: 95d1 ae3a aac6 edb9 a849 1f3b 9134 deba
00000180: b619 863b 7b02 38bb 980d e03b 014b d0bb
00000190: b743 a7bb 9a66 b23a a942 b9ba f364 21bc
000001a0: 80c4 56bb c1db acbb b24f e2ba 4286 8c3b
000001b0: 839f 0bbc 63f2 cb39 6335 213b 9846 643b
000001c0: 72ec 623b b990 a03a 4a5c da3b ec3c 263a
000001d0: f205 eabb 0353 3dba 28f4 adbb 2c19 9f3a
000001e0: f63b b03a a465 0d3c 1bee 11bc 84ca c33b
000001f0: eefb 2dbb 80ed cfb9 edc7 4d39 a64e a33b
00000200: ee92 efbb 691f 513b 3b19 033a 5249 f0bb
00000210: 2541 d43b 3405 9fba f65d 87bb ed4d 70bb
00000220: 92f9 08bb c914 74bb 35d9 273c 6ffe 8dbb
00000230: 2e98 c83b b939 f83a 1bb2 c63b 97db 76bb
00000240: 1cfb 933b 3f9c 993b 47f1 00bc 29f8 9fba
00000250: aca0 c0bb b3c5 fcbb b66c acba 921a 68ba
00000260: 69d3 293b f2a8 55ba 19f0 d7ba faf9 873b
00000270: dcdf 61bb c712 9c3b 2d9e 2a3b c6b1 37ba
00000280: 7ffd e0ba 7f26 be3b 52d5 2aba 8a74 f6b7
00000290: 5386 123a e7f7 f738 43fd eb3a 9c66 4ab9
000002a0: 0d15 693b 161e 733a bdcd f5ba f4a7 993a
000002b0: 8be2 5c3a 9d21 acb9 28b7 7abb 1696 df3a
000002c0: e21e f8bb 7370 bd3a 6e06 843b d64d 16bc
000002d0: bf69 08bb 96df b33a 2db5 be3b 6c1c ef3a
000002e0: 224f a23b 8f9d bbbb 9e5e 963a 4ea1 32bb
000002f0: 4986 ff39 0396 1fbb fdb7 dab8 965a 2c3b
00000300: 23b4 d0bb 1226 663b b1da af3b 1927 4e3a
00000310: bdd3 733b 1749 143b 3b36 b4ba bd35 133b
0.0021109332 0.0029530104 -0.004697839 0.001759935 -0.0047746524 0.0043366756 -0.007290494 -0.00416325
0.010159675 0.0025713698 -0.002774852 -0.0008780029 0.0010974415 -0.0005859671 -0.00084275374 -0.009686342
-0.0009207 -0.00068946375 -0.0018363141 -0.006776689 -0.0009652294 0.0057838387 -0.0018592775 -0.0050911373
0.006377983 -0.002228078 -0.013210902 0.002005614 -0.00027668104 0.0026935348 -0.004639692 0.0052472805
-0.0025029923 0.0057335626 -0.015225095 0.0019574927 -0.007348275 0.0060029207 -0.004312586 -0.0037130385
-0.0014036124 0.010315869 -0.007413223 -5.5793917e-05 0.0077360994 -0.0043021087 0.001384952 0.0031236415
-0.0020910818 -0.0066292146 -0.0017634698 -0.0032299792 0.00017964895 -0.0006591183 -0.0013115495 -0.0037824623
-0.0049417885 -0.00060776755 0.0037338068 -0.0013412476 -0.0018283675 -0.0025621983 0.0019869516 0.0014782571
0.0032166375 0.001834438 0.0004716176 -0.0017201687 0.002925122 -0.0028455646 0.0007462233 0.0017459609
0.00456281 -0.00086566515 -6.2061e-05 -0.0021061306 0.0061402884 0.00031133852 -0.0007259262 0.0067007807
-0.0027316946 0.00093249325 -0.0008697413 0.009393762 -0.0054628057 0.003096004 -0.00620116 -0.0004461722
-0.0057633314 0.0023758796 0.0033211713 -0.011082261 0.0013337607 -0.0004535218 0.0024305377 -0.0016952922
0.0040924205 -0.002807765 0.006837558 -0.0063565974 -0.005104508 0.00136109 -0.0014134246 -0.009850728
-0.0032770932 -0.00527522 -0.0017266183 0.0042884657 -0.008521917 0.0003889977 0.0024598471 0.0034832116
0.0034625796 0.0012250162 0.0066638337 0.00063414755 -0.007141822 -0.00072221475 -0.0053086467 0.0012138239
0.0013445604 0.00863019 -0.008906866 0.0059750695 -0.0026547867 -0.00039659068 0.00019624802 0.004983741
-0.0073112166 0.003190959 0.0005001013 -0.007332959 0.0064774924 -0.0012132288 -0.004131074 -0.003666754
-0.0020900709 -0.0037243834 0.010244657 -0.0043333094 0.006121657 0.0018938101 0.0060637123 -0.0037667507
0.0045160186 0.0046878154 -0.007870025 -0.0012204695 -0.0058785286 -0.0077139973 -0.0013154957 -0.0008854057
0.0025913364 -0.000815048 -0.0016474753 0.0041496726 -0.0034465706 0.0047629806 0.0026034222 -0.00070073863
-0.0017165391 0.005802929 -0.00065167726 -2.9379753e-05 0.0005589474 0.00011824053 0.0018004555 -0.00019302446
0.0035565526 0.00092741975 -0.0018753331 0.0011723028 0.00084260915 -0.0003283144 -0.0038256142 0.0017058279
-0.007572041 0.0014453068 0.004029087 -0.009173831 -0.0020814983 0.001372325 0.0058199377 0.0018242723
0.004953281 -0.0057255696 0.001147229 -0.002725679 0.0004873744 -0.0024350889 -0.000104293205 0.002629911
-0.00636913 0.0035117907 0.005366646 0.00078641024 0.0037205063 0.0022626573 -0.0013749072 0.002246245

sequential/ftr1/Conv2D f4 [16, 3, 3, 8]
00000000: 7ce5 803e afb9 1f3d c409 623e bffe d2bc
00000010: 5d59 433d 296e 7f3c 6824 b0bd 57d8 133d
00000020: 5e4c 2f3e c455 3a3e 0fd0 203e 0069 10be
00000030: ee1d 883e 9970 583e 9e66 db3d 46ba be3d
00000040: 1d84 013e 57ea 76bd d7b1 74be 60fa 7d3c
00000050: 3cd5 603e 6d50 d6bb 9687 20be 1e40 42be
00000060: e1e6 853c 2d87 5fbe ffbc ccbd 3c67 7ebd
00000070: 3e8e a3be 64a8 f83c 6e22 523d b9ad 36be
00000080: d7fe 933e 8a32 b33e 7328 05bd 545d 80be
00000090: 7ed0 023e 4a15 ccbc ce1c 163c 7112 553e
000000a0: 2c62 8a3d d572 0d3e c5ad 0abe 4ef7 0ebd
000000b0: b420 8c3d 7404 4a3d ef7e 8dbe 074b 3dbd
000000c0: 1fad 5f3e 7db8 18bd 4545 6abb f626 bfbd
000000d0: b571 da3d 7ce1 64bd 8d13 bfbc 3b16 26be
000000e0: e4d6 b73e d55c 393e 2e08 47be 3625 5ebd
000000f0: 4f0a d93d 76ad c03e 19a7 aebd a278 05be
00000100: 9dba 903e f765 953e d1bb a6be 66b0 acbe
00000110: 6106 9c3e 107b 533d 2604 69be 59a3 9dbd
00000120: a045 463e c6d0 6bbf 9ba2 e03b f87c 02bc
00000130: f483 94be a19d af3d 96e3 e73c 9a90 08be
00000140: 0522 60be 167a 92be 42de 723e 138d 83be
00000150: 17c2 99bd 8108 0c3d 3eac d8bd 9c4a ab3e
00000160: 6cbb fe3b 5ca3 fa3e a417 4e3e b4cd ae3e
00000170: 60dd 163f cc66 9b3e 053d 72be 7ef6 45be
00000180: e5e1 08bf c14a f6be e97d 193e f144 063e
00000190: dccb 15bf 0099 11be 8f71 29bf 0554 dd3d
000001a0: 2ada 06bf 7871 c4be 8225 aebd 5526 6cbe
000001b0: 4b46 d8be 18a0 f7be 050a 9f3d bc25 633c
000001c0: f414 e53b d763 4d3f 21b6 46be 3833 c9be
000001d0: 7957 b03e f648 903e a239 ddbd ce7a bd3d
000001e0: 623f 0fbc efb1 0e3f 66ce a2be fd0e 26be
000001f0: 9b40 de3d 261e ca3e 9ab7 b43d e6ee a4bd
00000200: 623b 31be 5d04 a2bb d746 623e 7e83 a9bd
00000210: 0342 7ebe fcb6 20bf 29ab 87be 3773 cabd
00000220: 28fd e23d 06b1 c83e 0d0d 6f3e bad1 1abe
00000230: 9434 7cbe 7091 823e 5f71 15bc 40b8 bb3d
00000240: c5d4 1e3d b4f5 f83e 7f2f f43b b992 8cbd
00000250: 6d0b 893e 8fd6 ebbd d98a 053e 8e40 223e
00000260: 65f4 623e f0c8 23bd 574d 10be 94d2 82bd
00000270: 7830 afbd f488 50bd d6af 0fbe 5f56 503d
00000280: 3e3d 883d 757a a7bd 6073 5abe a21d 45bd
00000290: af49 e2bd 6f1d ecbc ed10 093e 3a00 4a3d
000002a0: 7b40 0d3e d5fe 23be 0e27 b83c e6e8 90bc
000002b0: 0467 a4bd 19aa f53d c45b 0d3d a911 b1bd
000002c0: 4f72 31be 078a a0be a9a2 0cbe f4ab 10bc
000002d0: 789d 70be 9679 34be 228c 9abe 8d38 e738
000002e0: bc42 40be d3b2 c2bb a163 71be 2437 d6bd
000002f0: 6c56 0dbd ff27 7b3e 817d 8abe edc0 aabd
00000300: 4911 053e 6c86 e23d 6faf 9fbd a055 bbbd
00000310: b4b8 373e 0c26 d13c 3ca1 5c3d 528a 113e
00000320: 339c 27be a774 663d acb7 d13d 309b ac3d
00000330: c544 8f3d 9037 903d 20b4 82be 10cc 15be
00000340: 4dc4 69be de26 aabe 6bd0 b5be 8936 02bd
00000350: d96a 033e fd84 5d3e 513f ccbe 7796 e6bc
00000360: f29a a73d b5f5 c93c 47c4 533e 8db8 3fbd
00000370: 2cfa 5bbe 0a50 2abe 344f 26be 3ad3 1ebe
00000380: e4a9 ab3d c886 8f3d a93a 02be f1ab 233d
00000390: 2553 bf3d d313 9abe 853d c03d c88d 0e3d
000003a0: df71 84bd 9a87 ecbe 2416 b23d 892f fbbd
000003b0: 7a9e a83d 8d3f 8ebd d6a0 463e c31a 4fbd
000003c0: 2e57 923d 88ba c73d e5cb 3cbe a93e 4cbe
000003d0: 550a 1d3e cd27 bbbe 2928 45bd 8504 9dbe
000003e0: d5f0 83bd 238a 7abe b991 a33d 1a31 c0be
000003f0: 311d 29be 402c b5b9 0651 87bd 83e4 cbbe
0.25175083 0.03899544 0.22074038 -0.025756238 0.047692645 0.015590229 -0.08600694 0.03609499
0.17118976 0.1819678 0.15704368 -0.14102554 0.26585335 0.21136703 0.10712932 0.093128726
0.12648053 -0.060282078 -0.23895966 0.015501589 0.21956342 -0.006540349 -0.15676722 -0.18969771
0.016345443 -0.21828909 -0.09996986 -0.06211017 -0.3194446 0.030353732 0.051302366 -0.17839707
0.28905365 0.34999496 -0.03250928 -0.25071204 0.12774846 -0.024912495 0.009162141 0.20807816
0.06757006 0.13813336 -0.1354285 -0.034903817 0.06842175 0.049320653 -0.27635905 -0.04621413
0.21843384 -0.037285317 -0.0035746854 -0.09333603 0.10666219 -0.0558791 -0.023324752 -0.16219418
0.35906136 0.18101819 -0.19436714 -0.054234706 0.10597669 0.3763234 -0.08527965 -0.13034299
0.28267375 0.29179356 -0.32565168 -0.3372833 0.30473617 0.051631033 -0.22755489 -0.07697172
0.19362497 -0.9211544 0.0068553216 -0.007964365 -0.29006922 0.08574987 0.028306764 -0.13336411
-0.21887977 -0.2860877 0.23717597 -0.2569357 -0.07507723 0.034187797 -0.105797276 0.3345536
0.0077738073 0.48952758 0.20126206 0.34141314 0.5893154 0.30351865 -0.2365609 -0.1933231
-0.5346969 -0.48103908 0.14989437 0.13112237 -0.5851419 -0.14218521 -0.661889 0.10807041
-0.5267664 -0.3836782 -0.08503248 -0.23061498 -0.4224113 -0.4836433 0.07765583 0.013863977
0.006991023 0.8023047 -0.19405414 -0.3929689 0.34441736 0.28180665 -0.10802008 0.09251939
-0.008743139 0.55740255 -0.31798095 -0.16216655 0.10852166 0.39476126 0.08824082 -0.08053379
-0.17307809 -0.004944368 0.22097336 -0.08277033 -0.24829869 -0.6277921 -0.26497772 -0.09885257
0.11083442 0.39197558 0.23344822 -0.15119067 -0.24629432 0.25501585 -0.009121268 0.09166002
0.03877713 0.48624957 0.007451951 -0.068639226 0.2676653 -0.11515533 0.13041247 0.15844938
0.22163542 -0.03998655 -0.14092003 -0.06387821 -0.085541666 -0.05091186 -0.1403192 0.05086362
0.06652306 -0.08177654 -0.21333075 -0.048123963 -0.1104921 -0.028822629 0.13385363 0.049316622
0.13794129 -0.1601518 0.02247956 -0.01768918 -0.08027461 0.11995334 0.034511343 -0.086459465
-0.17328762 -0.31355307 -0.13733925 -0.008830059 -0.2349757 -0.17624506 -0.30185038 0.00011025472
-0.18775457 -0.0059417277 -0.23573162 -0.10459736 -0.034506246 0.24526976 -0.27048877 -0.08337579
0.12994875 0.11060795 -0.07797133 -0.09147191 0.17941552 0.025530837 0.053864703 0.14212921
-0.16368179 0.056263592 0.10240111 0.08428037 0.069955386 0.07041848 -0.2552805 -0.14628625
-0.22828789 -0.33232778 -0.35510573 -0.03179029 0.12833728 0.21632762 -0.39892057 -0.02814792
0.0818385 0.024653295 0.20680343 -0.04680686 -0.21482152 -0.16632095 -0.16241151 -0.15510264
0.083820134 0.07008129 -0.1271769 0.039958898 0.093420304 -0.3009325 0.09386734 0.034803182
-0.06467032 -0.46197206 0.08695629 -0.12264926 0.08233352 -0.06945715 0.19397292 -0.05056263
0.071455345 0.09752375 -0.18437155 -0.19945778 0.15335973 -0.36553803 -0.048134003 -0.3066751
-0.064424194 -0.24466757 0.07986779 -0.37537462 -0.16515042 -0.0003455598 -0.06607251 -0.39822778

sequential/ftr11/Conv2D f4 [16, 3, 3, 16]
00000000: 48d6 943e 0a4d 93be b42f 10bf 9dbd 413e
00000010: 42d4 80bf e48d 11bf e788 85bd 9131 5ebf
00000020: 067a fdbe 6406 53be c960 68bf e30b 123f
00000030: a51f adbe e430 fdbe b9e2 1abf dd12 0abf
00000040: fb94 403e 81d2 c9be fb5d 9dbf 49fe ac3e
00000050: f4f4 02bf 6bfd 64be 4009 2c3e 4b92 38bf
00000060: 6c64 803d 393d 25be bf9b 9abf bc30 1b3e
00000070: da06 aa3b 052f a8bf 9723 82bf 4523 85bf
00000080: c900 74be ed20 8dbf 8556 a9bf 33f4 a13e
00000090: e877 acbe 9da0 f4be 5f94 7bbe 22e9 2bbf
000000a0: e38b 9cbf 0df6 9abe b78d e6bf c72b b0be
000000b0: c070 03bf e0cc cdbf 490c 80bf d71d 95bf
000000c0: 3dba e5bd 15c7 853a b40b 51be 066c 89bc
000000d0: 873a 7abf 6118 81be 6bbe 053f c42c 15bf
000000e0: f203 1bbf 2aa0 20bd 55cf 0bbf b568 853f
000000f0: 8918 e1be f79f 43bf 6de8 b4be 3d6c 5cbe
00000100: a1b8 ebbe 11f3 bbbe ae7d 59bf 0b81 153f
00000110: 7a31 3abf 35ed 08be c4ca 883e 48c9 10bf
00000120: c3a1 77be 1e12 adbe 3649 6bbf 83d5 643e
00000130: 1116 1abe 473e 51bf 7732 d8be e1c5 4dbe
00000140: 1ff5 14bf 0503 2abf 85e6 9ebf 6c1b 323f
00000150: 00de f6be ea18 14bf df49 a9be cd09 8cbf
00000160: d927 8dbf 13a7 0dbf 33db 91bf ba62 c9be
00000170: 4433 15bf 926b 56bf 03b9 3abf 5db4 d5be
00000180: 3c17 993e 1805 673e 6ff8 9abe 6df3 e8bd
00000190: 09ea 3ebf 5db4 e8be 2ccb 293f 5164 b7bd
000001a0: 4183 8abf 17a6 b9be 462f 03be 58e5 f43e
000001b0: 8a1f 99bf 54ed 95bf 2155 47be 3933 1cbf
000001c0: bd4e 1a3f 6d29 b6be 311f 5cbf c025 383d
000001d0: 4bb8 8ebf 8c5b 593e c268 443e f646 1dbe
000001e0: c02f 00bf 9fd8 53bf 02b9 d5bd 92eb c03e
000001f0: ba6e 61bf 0787 8abf b341 10bf c749 96be
00000200: 1210 5e3f a4d6 6bbf 92cd a5bf 4327 a53f
00000210: 31e0 21bf 3c2c 1abe 0eac 16be 1091 01bf
00000220: f992 8cbf 0480 98be fe74 2fbf f9a9 44bd
00000230: 38fb b9bf 0a36 6ebf 7ef6 2dbf 0123 d6bd
00000240: 8a0a 83be 689c d03d b827 0440 cf2b cbbe
00000250: 6ed0 6c3f f77e c93f 0044 40bd 119d f2bd
00000260: 0de3 0abf 40fa 473f 1025 b13e 5409 4ebf
00000270: 31a1 0e3f 7dcf 13be 0218 1f3f 265d 033f
00000280: dfed 97bf e890 9d3f 0032 0c40 d0dc f4bf
00000290: d1b8 893f d455 ae3f 6fe9 5cbe b422 eebc
000002a0: 50f0 abbe 186e 1b40 bcda 303f e4eb b7bf
000002b0: e10a 103f dc25 643f e2ee 783f e1d4 8b3f
000002c0: fca9 14bf cc22 c33f 1102 1d40 f4b4 b8bf
000002d0: cab0 0c40 0e0a cd3f 7c75 023f 1e86 033f
000002e0: ed00 97be 38e9 2a40 ad98 2c3f 372a abbf
000002f0: cac9 413f 8469 703f 0b28 913f 71ca 0d3e
00000300: 3324 a43e e76a 83be 5619 473f 5a79 11bf
00000310: 3e70 cbbe 1d16 353f a457 0dbf 0234 9b3e
00000320: d886 63bd 905d 8f3f 27be 983f ee53 20bf
00000330: a407 1abe eb53 17bf d5bf abbe 7ff1 3fbd
00000340: 47ea f13e 1f0d afbe 9013 983f 5db5 97bf
00000350: f89b e63e de23 393f 330f 98be 5bea 763d
00000360: 4426 91be 6266 c03f fda3 f13e 420f e1be
00000370: 5763 a63e ac29 20be f2c3 6cbd c9fc 34be
00000380: ef4b d03e 5a81 923e 4890 f13f 0b67 9abf
00000390: 6631 653f b134 be3f fcae 893f 65ba a0bd
000003a0: 362e 223d 6541 0d40 4131 b73f 432c abbf
000003b0: 1c54 163f 9961 25bd 54ac 043f 873f dabd
000003c0: 8c8c ae3e 9479 d0be 1471 c33e 3564 bdbf
000003d0: 2c64 bdbe 4255 8ebe 5231 803d 898c fabd
000003e0: f571 96bd a69f ab3e e275 133f 78f8 5cbf
000003f0: b7c8 263f 71eb 8d3f 2b02 f83e fb84 8f3e
0.29069734 -0.28769714 -0.5632279 0.18919988 -1.0064776 -0.5685713 -0.06520253 -0.8679438
-0.4950716 -0.20607907 -0.9077268 0.5704939 -0.33813205 -0.49451363 -0.605022 -0.53935033
0.18806832 -0.39418414 -1.2294306 0.33787754 -0.5115502 -0.22362296 0.16800404 -0.72098225
0.06269154 -0.16136636 -1.207878 0.1515531 0.005188805 -1.3139349 -1.0167111 -1.0401388
-0.23828425 -1.1025673 -1.3229529 0.31631622 -0.3368523 -0.47778788 -0.24568318 -0.6715261
-1.223019 -0.30265847 -1.8011998 -0.344084 -0.5134392 -1.6078148 -1.0003749 -1.1649731
-0.11217163 0.0010206426 -0.2041462 -0.016775142 -0.97745556 -0.25213912 0.5224368 -0.5827143
-0.60552895 -0.039215244 -0.5461324 1.0422579 -0.4396403 -0.7641596 -0.35333577 -0.21525665
-0.46039298 -0.36708882 -0.84957397 0.5840003 -0.72731745 -0.13371737 0.26717198 -0.5655713
-0.24182801 -0.33802885 -0.91908586 0.22347073 -0.1504748 -0.8173565 -0.42226002 -0.20095016
-0.58186525 -0.6641086 -1.2414099 0.6957309 -0.48216248 -0.57850516 -0.33064172 -1.0940491
-1.1027786 -0.5533306 -1.1395019 -0.39333135 -0.5828135 -0.8375789 -0.72938555 -0.4173917
0.2990054 0.22560537 -0.30267665 -0.11374555 -0.7457586 -0.45450106 0.6632564 -0.08954681
-1.0821306 -0.3625953 -0.12811002 0.47831225 -1.196275 -1.1713052 -0.19466068 -0.6101566
0.60276395 -0.3557848 -0.85985094 0.044957876 -1.1149992 0.21226329 0.19180587 -0.153591
-0.5007286 -0.8275241 -0.10435678 0.37679726 -0.8805958 -1.0822457 -0.5635025 -0.29353163
0.8674327 -0.9212439 -1.295336 1.2902607 -0.63232714 -0.15055937 -0.14714071 -0.5061197
-1.0982352 -0.29785168 -0.6853789 -0.04801366 -1.4529791 -0.9305121 -0.6795424 -0.10455895
-0.25593978 0.10186082 2.0649242 -0.3968186 0.9250554 1.5741872 -0.04693985 -0.11846364
-0.542527 0.78116226 0.3459859 -0.80482984 0.5571471 -0.14434619 0.6214601 0.5131401
-1.1869467 1.2309847 2.1905518 -1.9129887 1.0759526 1.3619943 -0.21573423 -0.029069282
-0.3358178 2.4285946 0.6908376 -1.4368863 0.562666 0.8912027 0.97239506 1.092434
-0.58071876 1.5244994 2.4532511 -1.4430223 2.1982903 1.6018693 0.50960517 0.5137652
-0.29492894 2.6704845 0.67420465 -1.3372258 0.7569853 0.93911004 1.1340345 0.13846757
0.32058868 -0.25667498 0.77773035 -0.5682579 -0.39734071 0.7073687 -0.55211854 0.30313116
-0.05554852 1.1200428 1.193303 -0.62628067 -0.15041977 -0.59112424 -0.33544794 -0.046861168
0.47249052 -0.34189698 1.188097 -1.1852223 0.4504087 0.72320354 -0.29699096 0.060282093
-0.28349507 1.5031245 0.47195426 -0.43956953 0.32497665 -0.15640897 -0.057804056 -0.17674555
0.40682933 0.28614312 1.8872156 -1.2062696 0.895285 1.485983 1.0756526 -0.07848052
0.03959485 2.2071164 1.4311906 -1.3372883 0.5872209 -0.04037628 0.5182545 -0.10656648
0.34091604 -0.40717757 0.3817221 -1.4796206 -0.36990488 -0.27799422 0.06259407 -0.12233836
-0.07345954 0.3352024 0.5760175 -0.86316633 0.65150017 1.1087476 0.48439154 0.28031144
