recovery/root/odm/variant/dada/odm/firmware/glove_model.tflite (tflite, 7776 bytes, 13 tensors)

sequential/fc1/BiasAdd/ReadVariableOp f4 [2]
0.096312486 -0.096313626
00000000: 7b3f c53d 1440 c5bd

sequential/relu0/Relu;sequential/bn0/FusedBatchNormV3;sequential/ftr0/BiasAdd/ReadVariableOp;sequential/ftr0/BiasAdd;sequential/ftr1/separable_conv2d/depthwise;sequential/ftr0/separable_conv2d f4 [8]
0.62439144 0.14287683 -0.08112383 -0.29358062 0.15968011 0.9532395 -0.09233411 0.29987663
00000000: 1ed8 1f3f 4e4e 123e 4024 a6bd 3350 96be
00000010: 2f83 233e 8107 743f aa19 bdbd 6e89 993e

sequential/relu1/Relu;sequential/bn1/FusedBatchNormV3;sequential/ftr1/BiasAdd/ReadVariableOp;sequential/ftr1/BiasAdd;sequential/ftr2/separable_conv2d;sequential/ftr1/separable_conv2d f4 [16]
-0.8823593 0.3997733 1.6575558 -0.14825223 1.1149702 0.9866059 -1.1994915 -1.1933589
-1.272201 0.7022594 -0.4240662 0.23214999 1.2454103 -1.3911145 1.4510417 -2.3136995
00000000: 4de2 61bf 16af cc3e ca2a d43f 6fcf 17be
00000010: 58b7 8e3f 3492 7c3f f088 99bf fcbf 98bf
00000020: 7bd7 a2bf 46c7 333f 341f d9be bab8 6d3e
00000030: 9b69 9f3f 0a10 b2bf bcbb b93f a713 14c0

sequential/activation/Relu;sequential/bn2/FusedBatchNormV3;sequential/ftr2/BiasAdd/ReadVariableOp;sequential/ftr2/BiasAdd;sequential/ftr2/separable_conv2d f4 [16]
0.60139847 -0.8226681 2.4765263 -1.1056681 -2.3065224 -2.822363 -5.0515223 -1.3087444
-1.7169743 3.024582 1.4373989 -6.5859604 0.38515472 -3.2332048 -1.5285645 -5.4275255
00000000: 40f5 193f 609a 52bf 687f 1e40 8886 8dbf
00000010: 109e 13c0 98a1 34c0 12a6 a1c0 f084 a7bf
00000020: d0c5 dbbf c092 4140 b0fc b73f 30c0 d2c0
00000030: 0033 c53e d4ec 4ec0 00a8 c3bf 4aae adc0

sequential/fc1/MatMul f4 [2, 16]
-4.392623 -3.3955834 -2.7271807 -3.71869 -3.71879 1.524719 -3.274902 1.7014569
-3.0898128 2.3175259 -3.4979906 -3.5292833 -2.8924143 -3.1911762 2.610019 -4.1039257
4.402061 3.056425 2.7006404 3.9733317 3.622016 -1.701323 3.525517 -1.1324246
3.250413 -2.1906605 3.4073746 3.7286055 3.0070868 2.8949537 -2.5098948 3.623044
00000000: 5e90 8cc0 3d51 59c0 218a 2ec0 04ff 6dc0
00000010: a800 6ec0 fe29 c33f ff97 51c0 57c9 d93f
00000020: 7ebf 45c0 5852 1440 14df 5fc0 c7df 61c0
00000030: 511d 39c0 3b3c 4cc0 8d0a 2740 5c53 83c0
00000040: afdd 8c40 789c 4340 4bd7 2c40 114b 7e40
00000050: 1ccf 6740 f4c4 d9bf 12a2 6140 4af3 90bf
00000060: c406 5040 c833 0cc0 6d12 5a40 79a1 6e40
00000070: 1c74 4040 ec46 3940 1ea2 20c0 f4df 6740

sequential/ftr0/separable_conv2d/depthwise1 f4 [1, 3, 3, 1]
-0.24925576 0.344166 0.6216658 -0.7082695 -0.20117536 0.04652835 -0.30558082 -0.71588975
0.10683018
00000000: e73c 7fbe 8736 b03e 7d25 1f3f 2651 35bf
00000010: ea00 4ebe 8394 3e3d 1775 9cbe 8d44 37bf
00000020: c8c9 da3d

sequential/ftr0/separable_conv2d f4 [8, 1, 1, 1]
-0.015364005 -0.015817871 0.014218819 0.017372195 -0.015787927 0.014479159 0.017201373 0.011785748
00000000: 4fb9 7bbc 7b94 81bc 0df6 683c 2250 8e3c
00000010: af55 81bc ff39 6d3c e5e9 8c3c 0319 413c

sequential/ftr1/separable_conv2d/depthwise f4 [8]
0.0 0.0 0.0 0.0 0.0 0.0 0.0 0.0
00000000: 0000 0000 0000 0000 0000 0000 0000 0000
00000010: 0000 0000 0000 0000 0000 0000 0000 0000

sequential/ftr1/separable_conv2d/depthwise1 f4 [1, 3, 3, 8]
-0.46201175 -0.11369906 0.115587346 0.4084691 -0.153795 -0.32787198 -0.32755595 0.6998557
0.6640664 0.15214072 -0.33352214 -0.16045642 -0.60462797 0.1454525 0.50341684 0.41085884
-0.037950404 0.5089709 -0.12130561 0.07221619 0.37403223 0.04286033 0.11248109 0.32152396
0.45034128 0.010480702 -0.7271292 0.52435315 -0.5230637 -0.01055814 -0.46369007 -0.030424375
0.04514644 -0.6354786 0.11133222 0.41277865 0.38009027 1.0312485 0.51338446 0.1524312
-0.56581086 0.3450915 -0.20318179 -0.1809572 -0.4179963 0.3038443 0.40228495 0.074050486
-0.14557482 -0.49600443 -0.44626024 0.120551035 -0.09458497 0.23880745 0.4618321 0.21730949
-0.4159269 0.031194668 0.06606388 0.8123134 -0.2911102 0.026386384 0.05920231 0.18283933
0.26912376 -0.058701977 -0.039916754 -0.13193232 0.01792533 -0.13935441 0.04304058 0.1185595
00000000: ce8c ecbe 0edb e8bd 0fb9 ec3d dd22 d13e
00000010: 707c 1dbe d6de a7be 6ab5 a7be be29 333f
00000020: 4100 2a3f c7ca 1b3e 6ac3 aabe b04e 24be
00000030: e6c8 1abf 80f1 143e eddf 003f 175c d23e
00000040: e271 1bbd eb4b 023f 136f f8bd 15e6 933d
00000050: 2781 bf3e 508e 2f3d 7c5c e63d ca9e a43e
00000060: 2293 e63e 40b7 2b3c 2425 3abf 023c 063f
00000070: 81e7 05bf 0dfc 2cbc c968 edbe 8a3c f9bc
00000080: 79eb 383d baae 22bf 2602 e43d b957 d33e
00000090: 319b c23e f3ff 833f 2a6d 033f ed16 1c3e
000000a0: fbd8 10bf d5af b03e e30e 50be d84c 39be
000000b0: 9c03 d6be 7b91 9b3e 4bf8 cd3e c8a7 973d
000000c0: 9111 15be 4bf4 fdbe 397c e4be 76e3 f63d
000000d0: c4b5 c1bd f189 743e 4275 ec3e 6186 5e3e
000000e0: 5ff4 d4be f68b ff3c 804c 873d c5f3 4f3f
000000f0: 650c 95be 4228 d83c 1f7e 723d 3c3a 3b3e
00000100: 97ca 893e 7c71 70bd c07f 23bd 4419 07be
00000110: 24d8 923c ecb2 0ebe 524b 303d 53cf f23d

sequential/ftr1/separable_conv2d f4 [16, 1, 1, 8]
0.899727 -0.39533573 -0.024791298 -0.5393863 0.37876004 1.1246928 -0.31945187 -0.98972565
-0.75290585 0.116967365 0.23476927 -0.5706604 0.75833154 -0.5377808 0.41652507 0.083779536
-0.10808779 0.71151173 0.24357809 -0.14301376 -0.1261223 -0.65960306 0.6920067 -2.081156
-0.1758598 -0.58227384 0.3902192 -0.8425173 0.30846977 0.72139686 -0.19075756 0.20363966
-0.16051514 -0.24602433 -0.17629892 0.101993315 1.2370003 -0.38462448 -0.7928117 0.19242744
0.24614878 -0.6757992 0.39860252 0.3531822 0.30928025 -0.6185856 -1.1191107 -0.19705729
0.6576842 0.0328773 0.9935052 -1.0795678 -0.6767012 0.43223304 0.28018588 0.13942674
0.17087796 -0.75901186 -0.20713341 0.13872756 -0.5474071 0.36988586 0.24524733 -0.35663098
-0.18330072 0.9389955 1.0051394 -0.8379727 -0.8032991 0.48081562 0.0143037 0.8029611
-0.9903404 -0.018796187 -0.53934014 -1.0858169 0.6007698 -0.21614282 -0.27458057 -0.34111756
0.54849976 -0.46245193 0.81863505 0.98993814 -0.22389679 0.13693807 0.26430276 0.36319506
-0.22809732 0.5980329 1.0154661 -0.90125346 -0.29621902 0.33386412 -0.21710166 -0.12786172
-0.26025495 0.21178028 1.1850998 -0.16318212 0.45317015 -0.10178795 -0.6767798 -0.5550104
-0.2575945 -0.0440034 0.07849052 0.24381591 -0.4504916 -0.0029071162 -0.5137877 0.10242943
1.1244868 0.65525043 0.3713261 -0.5458572 0.3783675 -1.0566916 0.68299717 0.22096428
-0.37108737 0.00023602566 -0.46583197 -0.9053333 -0.45506603 2.2254245 -1.4301841 -0.64846116
00000000: 8254 663f 7269 cabe 1f17 cbbc 3815 0abf
00000010: d6ec c13e eff5 8f3f 328f a3be a95e 7dbf
00000020: 70be 40bf 968c ef3d 5b67 703e cd16 12bf
00000030: 0422 423f 01ac 09bf c642 d53e 9b94 ab3d
00000040: 225d ddbd a225 363f 896c 793e 3372 12be
00000050: 3426 01be bfdb 28bf 5a27 313f a931 05c0
00000060: 9714 34be e60f 15bf d0ca c73e 37af 57bf
00000070: c0ef 9d3e 77ad 383f f355 43be ea86 503e
00000080: 155e 24be cded 7bbe b487 34be dfe1 d03d
00000090: 0756 9e3f 80ed c4be b5f5 4abf b30b 453e
000000a0: 6d0e 7c3e 2d01 2dbf a115 cc3e 4cd4 b43e
000000b0: fb59 9e3e a05b 1ebf 053f 8fbf 63c9 49be
000000c0: fe5d 283f 59aa 063d 5b56 7e3f 472f 8abf
000000d0: 4a3c 2dbf a64d dd3e 8674 8f3e e2c5 0e3e
000000e0: a2fa 2e3e 9a4e 42bf c81a 54be 990e 0e3e
000000f0: df22 0cbf ae61 bd3e 1e22 7b3e 5698 b6be
00000100: 2fb3 3bbe 0262 703f 68a8 803f 6185 56bf
00000110: 03a5 4dbf 772d f63e 115a 6a3c dc8e 4d3f
00000120: f386 7dbf 76fa 99bc 3212 0abf 0cfc 8abf
00000130: 0dcc 193f 8b54 5dbe d395 8cbe f6a6 aebe
00000140: 7b6a 0c3f 80c6 ecbe 1192 513f 966c 7d3f
00000150: 3345 65be 7e39 0c3e b152 873e b4f4 b93e
00000160: 5892 69be af18 193f cbfa 813f 8cb8 66bf
00000170: 05aa 97be 3df0 aa3e e64f 5ebe 2fee 02be
00000180: 2340 85be eedc 583e 5ab1 973f 3719 27be
00000190: eb05 e83e 3376 d0bd 7141 2dbf 2915 0ebf
000001a0: 6de3 83be e93c 34bd a3bf a03d e1aa 793e
000001b0: d6a6 e6be 5185 3ebb 9787 03bf 85c6 d13d
000001c0: 2fef 8f3f 7ebe 273f 741e be3e 4cbd 0bbf
000001d0: 63b9 c13e ac41 87bf e7d8 2e3f 7644 623e
000001e0: 2aff bdbe a87d 7739 8781 eebe ecc3 67bf
000001f0: 6afe e8be 5b6d 0e40 4610 b7bf 8d01 26bf

sequential/ftr2/separable_conv2d/depthwise f4 [1, 3, 3, 16]
0.44786817 0.29945505 0.1461559 -0.05890521 0.8169657 -0.6329856 0.09346749 0.2585073
0.18499134 0.05363024 -0.29365295 -0.32854697 -0.508609 0.36014712 -0.24290507 0.10527654
-0.33991334 0.4349246 -0.42824528 0.3761831 0.0122536225 0.43416387 -0.11812782 0.4119438
-0.005106797 0.11191168 0.17507441 -0.014214104 -0.3751558 0.38237876 0.10667164 -0.5662853
0.3280132 0.041103676 0.74267894 0.24426727 -0.39426184 0.12525612 -0.040618505 0.5363321
-0.0010089416 -0.5668357 0.30757475 -0.49803126 0.3647771 0.121519014 -0.35170045 0.3916645
0.023736674 0.04717361 0.28836438 0.44869515 -0.10762142 0.61434525 0.8367715 -0.49614075
-0.34963948 -0.8154979 -0.30765674 -0.7667031 -0.015659492 0.09858944 -0.6137122 0.021518558
0.32497185 -0.73808813 -0.30493298 0.6375361 0.17993842 0.18010442 -0.093686424 0.3715698
0.20593327 -0.12267209 -0.1880088 -0.032718975 -0.6618874 0.6646468 -0.4056213 -0.5401881
-0.25976843 0.84223807 0.3696935 0.029475132 0.3262056 0.7594632 0.013323087 0.08334345
-0.5447622 -0.36916468 0.55363137 -0.23830277 0.0048606917 -0.32651272 -0.053582698 0.2811134
-0.06295722 -0.0716821 0.56676066 0.4137332 0.07443623 0.0402587 -0.09632624 0.62484264
-0.52954406 -0.17181711 -0.21099883 -0.3408339 0.19176908 -0.3284311 0.13620831 0.039599627
0.4359314 -0.6632065 -0.32742047 -0.22162718 0.29464433 0.057123322 0.38194403 -0.07835327
0.55458605 -0.18057907 -0.41184267 -0.041437577 -0.6903775 -0.09867872 0.012974102 -0.076725945
0.65692437 0.0848057 0.63436294 -0.07859111 -0.08742493 0.01516019 -0.6097412 0.18528885
-0.33083463 -0.23974231 0.22102158 -0.23320507 0.25367212 -0.24600327 -0.530895 -0.061386243
00000000: fa4e e53e 2c52 993e e4a9 153e 9746 71bd
00000010: aa24 513f 580b 22bf e26b bf3d 125b 843e
00000020: 5f6e 3d3e 62ab 5b3d ae59 96be 4f37 a8be
00000030: 3334 02bf 3465 b83e 1bbc 78be 3a9b d73d
00000040: 1f09 aebe 70ae de3e f742 dbbe 129b c03e
00000050: 6bc3 483c ba4a de3e 00ed f1bd 4cea d23e
00000060: eb56 a7bb f331 e53d b546 333e 46e2 68bc
00000070: 6c14 c0be 26c7 c33e a976 da3d 13f8 10bf
00000080: 59f1 a73e 545c 283d 3520 3e3f 3321 7a3e
00000090: b0dc c9be 2443 003e 975f 26bd 0f4d 093f
000000a0: 763e 84ba 251c 11bf 707a 9d3e f4fd febe
000000b0: 10c4 ba3e f6de f83d 1512 b4be 4088 c83e
000000c0: 6a73 c23c 1e39 413d 7fa4 933e 5fbb e53e
000000d0: 9e68 dcbd bb45 1d3f a836 563f 2906 febe
000000e0: f203 b3be 78c4 50bf 2f85 9dbe a846 44bf
000000f0: 5648 80bc 43e9 c93d 3e1c 1dbf b047 b03c
00000100: b662 a63e 58f3 3cbf 2d20 9cbe 9135 233f
00000110: c741 383e 4b6d 383e abde bfbd 663e be3e
00000120: 2ce0 523e 813b fbbd 6185 40be 5504 06bd
00000130: 7471 29bf 4b26 2a3f 98ad cfbe c449 0abf
00000140: 5e00 85be ea9c 573f 7748 bd3e d575 f13c
00000150: 6c04 a73e 2e6c 423f 1449 5a3c f9af aa3d
00000160: 8975 0bbf 2703 bdbe c9ba 0d3f a405 74be
00000170: 7046 9f3b ad2c a7be 8879 5bbd 18ee 8f3e
00000180: b7ef 80bd 11ce 92bd 3a17 113f d7d4 d33e
00000190: 0672 983d 4ee6 243d b146 c5bd b0f5 1f3f
000001a0: 3390 07bf d3f0 2fbe 1410 58be c881 aebe
000001b0: 1d5f 443e 1f28 a8be 317a 0b3e 3833 223d
000001c0: 6732 df3e e7c7 29bf a8a3 a7be 3cf2 62be
000001d0: 9fdb 963e 25fa 693d 2b8e c33e ae77 a0bd
000001e0: 5af9 0d3f b8e9 38be 0bdd d2be 73ba 29bd
000001f0: 94bc 30bf 1218 cabd 5491 543c 7e22 9dbd
00000200: 322c 283f 9cae ad3d 9c65 223f 60f4 a0bd
00000210: d70b b3bd 7262 783c 0018 1cbf 5cbc 3d3e
00000220: 2863 a9be 027f 75be 7b53 623e 4fcd 6ebe
00000230: 50e1 813e 48e8 7bbe bce8 07bf 2470 7bbd

sequential/ftr2/separable_conv2d f4 [16]
0.0 0.0 0.0 0.0 0.0 0.0 0.0 0.0
0.0 0.0 0.0 0.0 0.0 0.0 0.0 0.0
00000000: 0000 0000 0000 0000 0000 0000 0000 0000
00000010: 0000 0000 0000 0000 0000 0000 0000 0000
00000020: 0000 0000 0000 0000 0000 0000 0000 0000
00000030: 0000 0000 0000 0000 0000 0000 0000 0000

sequential/ftr2/separable_conv2d1 f4 [16, 1, 1, 16]
1.4420316 -1.2573732 1.0335004 -0.059495825 0.13488477 1.1976845 -0.065305 1.4080245
0.9217086 0.7251989 -1.4652804 -0.5225081 4.2092934 0.7226413 1.9378803 -2.0763116
-0.69072104 -2.8127651 -4.2641873 -4.255896 0.23981197 1.3623098 -1.6803951 -2.2621539
-2.4816897 -2.6148245 0.049214166 -4.144139 2.4367287 -3.157667 -2.2410803 -2.2616227
2.6185572 -0.31078613 0.86153936 -1.4853377 2.961597 -2.1820204 -3.3011081 -0.35585797
2.5860307 0.42930454 -1.4040471 -0.4083881 3.1198823 1.5889136 -0.04784391 0.06674554
0.61838764 -1.3823755 -0.26198715 -1.2286934 1.2882003 1.950939 -0.3275557 0.360746
0.46859938 0.52759504 -1.9370543 -2.150679 3.030027 1.3040354 0.11994129 -2.6088462
5.1326137 -5.1185236 -1.9666742 -1.9367638 1.1008466 0.9120495 -2.0655866 -2.7186184
-0.7774027 -1.8486924 -1.9633062 -2.2130475 1.4230721 1.9346014 -2.9559686 -0.024291055
0.9309603 -0.2367477 1.3686297 -0.32130426 -1.1096382 0.9164728 0.0613254 1.0605956
1.4825301 -4.041574 0.2946034 -1.6942532 0.21043575 -0.4626551 -0.70653594 3.6634052
-0.5067981 -5.667262 -3.689188 -0.7391374 1.455453 3.4708488 -0.2977103 -1.0451585
-1.8148607 -2.726286 -0.76614726 -1.873287 0.32714897 -0.80081123 -1.7994844 -0.92281055
0.6227107 3.314688 2.2180083 0.32301983 2.4245558 1.6125267 2.2101502 -1.7054871
-0.523321 0.72470194 -0.12740919 0.31083894 -0.026215902 0.73020995 -0.71360844 1.0302353
2.9341676 -4.1061106 -2.10114 -2.182724 1.5702641 -0.29604325 -2.2307518 -2.795645
-1.4055291 -3.1241667 -1.1019058 -1.7473886 1.4595996 0.15774392 -2.7780466 -0.24062118
-0.36770463 0.95866215 -4.8912954 -0.42753485 -0.35210368 2.5021465 -2.6912239 3.0038693
-4.16747 -0.49736664 -1.7813075 -0.21913682 3.6148636 -1.2697538 1.3629543 1.2252972
2.051445 -1.9056007 0.71285594 -3.29981 2.2701104 -0.76842105 -2.645154 -1.0073727
1.8009405 0.77668357 -2.037669 -2.2388217 2.337078 3.625143 -0.6862486 -1.3423051
0.48765844 -0.90032303 -2.8599865 -0.05797539 2.3071482 4.060723 0.013405129 0.108960755
-0.6612464 -3.1765463 -2.2608333 -0.51556355 -0.76227367 0.44402367 -1.5723217 -2.4562144
2.861427 -3.9769356 0.7481701 -2.956495 3.304491 0.5128077 -2.2250795 -0.13755098
2.078255 1.0815296 -2.6894324 -2.2851274 2.8246415 4.421704 -1.1311526 -0.2844831
0.051267065 1.9030292 -2.8855486 -2.8284183 0.7502952 0.7045722 -2.681502 -1.451098
-3.0257225 -1.9866875 1.0412301 -2.5815365 -0.66214937 -0.9245595 -2.5539796 -1.7485262
2.1598382 1.5663468 -5.146779 -1.2435473 -1.2542152 0.09427894 -0.13260111 4.2613845
0.1788265 -2.1541731 0.6817622 -2.3571312 0.8863726 -2.8681858 -2.7291052 0.22207189
0.0892264 0.45945773 -2.6910183 -1.7436457 1.5847915 1.917985 -2.4403498 -0.24857484
-3.3503318 -2.9931233 1.2036425 -1.7268922 -1.6114985 0.40971658 -1.6884124 -1.2688912
00000000: 7e94 b83f 9bf1 a0bf be49 843f e5b1 73bd
00000010: 3c1f 0a3e ba4d 993f a1be 85bd 263a b43f
00000020: 18f5 6b3f a3a6 393f 4f8e bbbf 17c3 05bf
00000030: 88b2 8640 05ff 383f 760c f83f 4ae2 04c0
00000040: 18d3 30bf 5804 34c0 3974 88c0 4d30 88c0
00000050: 4591 753e 2b60 ae3f 3017 d7bf 21c7 10c0
00000060: 01d4 1ec0 4959 27c0 cb94 493d c99c 84c0
00000070: 5df3 1b40 3717 4ac0 dc6d 0fc0 6dbe 10c0
00000080: 7196 2740 5c1f 9fbe d88d 5c3f 8c1f bebf
00000090: ce8a 3d40 39a6 0bc0 5b45 53c0 0433 b6be
000000a0: 8781 2540 cecd db3e d1b7 b3bf 3f18 d1be
000000b0: 27ac 4740 8561 cb3f faf7 43bd e3b1 883d
000000c0: a74e 1e3f aef1 b0bf 2e23 86be d345 9dbf
000000d0: bfe3 a43f 5fb8 f93f 61b5 a7be b3b3 b83e
000000e0: 42ec ef3e 7810 073f 65f1 f7bf baa4 09c0
000000f0: f6eb 4140 a2ea a63f c7a3 f53d 56f7 26c0
00000100: 5f3e a440 f2ca a3c0 fbbb fbbf e0e7 f7bf
00000110: 8be8 8c3f 137c 693f 9232 04c0 d8fd 2dc0
00000120: dd03 47bf f4a1 ecbf 9e4d fbbf 92a2 0dc0
00000130: 3a27 b63f 05a1 f73f 972e 3dc0 09fe c6bc
00000140: 6a53 6e3f fd6d 72be 422f af3f fe81 a4be
00000150: a008 8ebf f69d 6a3f 5830 7b3d 99c1 873f
00000160: 8cc3 bd3f 9354 81c0 42d6 963e 4add d8bf
00000170: 787c 573e 21e1 ecbe 8adf 34bf 3b75 6a40
00000180: 85bd 01bf 365a b5c0 a81b 6cc0 1c38 3dbf
00000190: 494c ba3f 6322 5e40 7c6d 98be c1c7 85bf
000001a0: 5b4d e8bf 787b 2ec0 3a22 44bf dec7 efbf
000001b0: 1280 a73e f701 4dbf 8155 e6bf 503d 6cbf
000001c0: f869 1f3f d923 5440 d9f3 0d40 db62 a53e
000001d0: ec2b 1b40 4667 ce3f 1a73 0d40 674d dabf
000001e0: 5df8 05bf 1186 393f 8e77 02be 4826 9f3e
000001f0: bbc2 d6bc 0aef 3a3f 0baf 36bf c0de 833f
00000200: 67c9 3b40 4265 83c0 1479 06c0 c0b1 0bc0
00000210: 6afe c83f fb92 97be a3c4 0ec0 d9eb 32c0
00000220: 61e8 b3bf 59f2 47c0 400b 8dbf 6eaa dfbf
00000230: 29d4 ba3f 9f87 213e 84cb 31c0 6665 76be
00000240: c843 bcbe e26a 753f 7e85 9cc0 d9e5 dabe
00000250: ef46 b4be 2b23 2040 033d 2cc0 653f 4040
00000260: ea5b 85c0 d7a6 febe e201 e4bf 6765 60be
00000270: ed59 6740 4b87 a2bf 4975 ae3f 8ad6 9c3f
00000280: e04a 0340 b9ea f3bf ba7d 363f 1630 53c0
00000290: 7d49 1140 3eb7 44bf 344a 29c0 97f1 80bf
000002a0: 3885 e63f bcd4 463f 2b69 02c0 db48 0fc0
000002b0: b092 1540 5802 6840 fdad 2fbf a7d0 abbf
000002c0: 5eae f93e 927b 66bf 050a 37c0 9a77 6dbd
000002d0: 51a8 1340 71f1 8140 30a1 5b3c d126 df3d
000002e0: 7247 29bf 894c 4bc0 7eb1 10c0 f9fb 03bf
000002f0: 5e24 43bf 1257 e33e d641 c9bf 9e32 1dc0
00000300: 9f21 3740 1d86 7ec0 1388 3f3f 3737 3dc0
00000310: c87c 5340 5e47 033f b467 0ec0 2ada 0cbe
00000320: 2102 0540 906f 8a3f a91f 2cc0 873f 12c0
00000330: edc6 3440 997e 8d40 9cc9 90bf c5a7 91be
00000340: 6afd 513d 7696 f33f d4ac 38c0 ce04 35c0
00000350: 5913 403f d85e 343f bb9d 2bc0 94bd b9bf
00000360: 70a5 41c0 c74b febf 0747 853f e537 25c0
00000370: 9f82 29bf eeaf 6cbf 6774 23c0 b5cf dfbf
00000380: ca3a 0a40 0d7e c83f 6ab2 a4c0 8f2c 9fbf
00000390: 208a a0bf 5115 c13d 96c8 07be 435d 8840
000003a0: 4b1e 373e f9dd 09c0 f887 2e3f 3ddb 16c0
000003b0: 51e9 623f 5b90 37c0 a9a9 2ec0 d066 633e
000003c0: 55bc b63d 0b3e eb3e a539 2cc0 c82f dfbf
000003d0: 73da ca3f 8880 f53f b12e 1cc0 678a 7ebe
000003e0: d66b 56c0 558f 3fc0 f510 9a3f ce0a ddbf
000003f0: 9545 cebf 5fc6 d13e e61d d8bf 076b a2bf
