recovery/root/odm/variant/dada/odm/firmware/smooth.tflite (tflite, 18820 bytes, 8 tensors)

dense_3/bias f4 [8]
00000000: 5c38 c5bd b937 dabe 287f 43be 436e 15bf
00000010: 04a2 153d cb33 8f3e cb73 d63f 401a 6340
-0.0962989 -0.42620638 -0.19091475 -0.5837137 0.036531463 0.27969202 1.6754087 3.5484772

dense_2/bias f4 [16]
00000000: c2a5 c4be f3d8 d5be 7181 16bf 0345 a0be
00000010: 9c29 e23e 733e 11bf 4dca 99be 916e c7be
00000020: a571 94be 4e5a 83bf 4f57 1abf f904 5fbe
00000030: 9cc3 91be 4b00 f5bd 1299 44bf fc69 0bbf
-0.38407713 -0.41767082 -0.5879126 -0.31302652 0.4417237 -0.56735915 -0.30037156 -0.38951543
-0.28992954 -1.0261934 -0.6028947 -0.2177924 -0.2846955 -0.119629465 -0.76796067 -0.54458594

dense_1/bias f4 [32]
00000000: b45d 86b9 a1c9 eebe 6faf e0bd 916a 9ebd
00000010: 7e0c b2bf e476 d7bd ab22 b8bd 56c7 cabe
00000020: 3b05 a7be a2c5 68bc 61c3 603f 2464 bfbd
00000030: 5e6e febe b7e1 75b9 b507 ecbe 27ff 3bbe
00000040: 65d6 a5be 6665 8ebf 4270 27be 1f5e 0cbe
00000050: f388 00bb 4e9e 96be 8f2e ea3e 53f0 edbe
00000060: 3ab6 93be a71c a2be a6f0 64bb 6e83 9ebb
00000070: 4fa6 e8bb d222 bfbf eb62 8abe 6ecf d6be
-0.00025628286 -0.46638206 -0.10970961 -0.0773517 -1.3910062 -0.105207235 -0.089909874 -0.39605206
-0.32621178 -0.014207276 0.87798125 -0.09345272 -0.49693578 -0.00023449106 -0.4609963 -0.18359052
-0.32390133 -1.1124694 -0.16351417 -0.1370778 -0.0019612878 -0.29417652 0.45738646 -0.46472415
-0.28849965 -0.31662485 -0.0034933477 -0.004837445 -0.0070999037 -1.4932501 -0.27028593 -0.4195513

dense/bias f4 [16]
00000000: 0378 90bd 6a2f 70be ed1d cbbf d029 9bbe
00000010: 183f 30bf 716c 92be 7e7e 14be 4674 91be
00000020: 1785 06bf 5981 f6bf fff4 b9be 42e9 a6be
00000030: df6e ee3c 8caf 88be be57 67bf 75ce 92be
-0.070541404 -0.23455587 -1.5868508 -0.30305338 -0.68846273 -0.2859836 -0.14501378 -0.28409022
-0.5254683 -1.9258224 -0.3631973 -0.32599837 0.029105602 -0.26696432 -0.9036826 -0.2867314

model/dense/Tensordot/MatMul f4 [16, 1]
00000000: 376c 4e3e ba30 af39 c01a cdbb f649 873a
00000010: a0f9 e6ba 0170 89ba 63ac 02ba 778f 4cba
00000020: 90c2 a9ba 908f d33b d1e3 c7b8 72c0 3dba
00000030: 9f2f 46be 4b74 d639 9e81 02bb a005 803a
0.20158468 0.00033414905 -0.0062592924 0.0010321725 -0.0017622001 -0.001048565 -0.0004984794 -0.00078033603
-0.0012951661 0.006456323 -9.5314936e-05 -0.00072384544 -0.19354104 0.00040903906 -0.0019913684 0.0009767301

model/dense_1/Tensordot/MatMul f4 [32, 16]
00000000: d052 7dbe 5b58 46be fff3 8b3e 54d8 c5be
00000010: bfaf 3abf c58c bd3e f58a 72be 2f05 99be
00000020: 8326 783e 5714 09be 16f5 f8be 570a 583f
00000030: 3495 44be 0181 87be 8f99 dfbe d187 103e
00000040: b375 f4bd c343 f1be 5326 47be 4cdd 4d3b
00000050: 9736 0bbf afb4 933c 185d 31bd eccd 87be
00000060: 6f1a 16bf d26b 44be 808b f1be 53ab 99be
00000070: ee8b d8bc 1d47 83be 6171 b3be b013 623d
00000080: 13ec b8be 07f1 2f3c ce6d 4c3e df77 9ebe
00000090: 38c3 b0be 00e8 6dbd 9bc2 c5be 1d65 f43d
000000a0: 2e2f ccbd 8b75 55be 2943 cabe 8139 2c3d
000000b0: e8bc 46be 04be 6dbe bb69 c4be 2cc6 c4be
000000c0: 7e5c 37bd 21ed 97bd 9b5b 023d 1e7d 1ebe
000000d0: 9b03 643e 03ca a3be 06b1 54be 1209 533e
000000e0: 2a83 ccbd c525 97be f317 37be 6381 44bc
000000f0: 9e45 ffbd 5299 623e 8946 7dbd 9564 82be
00000100: 17ff 0bbe 18b7 d6be a01f 94be 57fd 293d
00000110: 804f b6bd 2eca 84bd c747 cebd 3d02 79be
00000120: 71b9 d8be 65fc 4dbe aa8f 313e 3a38 7abd
00000130: db32 68be 7179 5f3c e72e d1be 30be dabd
00000140: 9a63 55bd f239 babe 6388 913d 2ee4 29be
00000150: 2251 06bf 4c12 b33e 3404 9abe ad14 e3bd
00000160: 1ec2 db3d 5979 623d 6fdc 96be d196 8dbd
00000170: e04b dabc 1c66 70bd b39e ddbe 970e 85bd
00000180: 3ab1 4ebe e5fc 1abf bb57 933e 6540 1d3e
00000190: eaf1 37be 3715 14bc b162 ac3e 6768 1f3d
000001a0: 5036 403e f5c3 fdbd 18c4 77bd 5c21 ba3e
000001b0: 65da 57bd 7fe7 153d b959 713d b4f5 aa3e
000001c0: f313 2abe fdce 91be d1f7 b13d 101c 113c
000001d0: fcd4 5f3e 7b34 523e c502 153e ed6f 9f3e
000001e0: c21b 613d 222e 14be 654b 61bd ba14 a5be
000001f0: 3602 2ebe 3f90 3e3e 39b5 cebe af70 7abe
00000200: 83ef 1dbb a6b3 39be 1140 80bf 7e80 febe
00000210: cb81 e9bd c35e b7be 9c75 cd3d c10f 34bf
00000220: de90 08be a3ee 33be c58d e1be a61b cd3d
00000230: 3060 25bf 6ad7 4ebe a3f6 e7be 79cf 08bf
00000240: 11e7 11c1 a1a4 eabd e9a0 c7bd 7f1a 97bf
00000250: 7779 a6bf 9402 3cbd 5028 c1be 71e7 873e
00000260: 07bc acbe 3ed7 57bf da07 16bf 2a62 07bf
00000270: 98c4 98be 6bc4 28bd 2326 0cbf 8a7d f33e
00000280: fab6 133e 4582 00bf 67bb 013d 5b90 60be
00000290: 99ef 8dbf 3a1b 6a3d 7c2a c33c 083c 26be
000002a0: 0540 37bf d2bb f4bd 9fc3 ffbc fd47 143f
000002b0: 4809 65be cabe 953e 9f0b 32bf f2c5 823d
000002c0: 8bfc 3abe 8848 a8bf 0e96 5dbe ecec b73d
000002d0: 80fa eebd ebe2 ac3b b01f 2bbe 5e0a f2bd
000002e0: 9938 28be d31b ad3e e669 823e e86c d6bd
000002f0: 031d f5be 9203 0f3d 7614 eabd 374b 30be
00000300: 08e9 c2bd 3005 a1be f3c6 19be 8cbe acbe
00000310: e769 b13d 7cb0 3dbe 5a7d 153d 624f 6abe
00000320: eebb cb3d 36ca 9dbd ab45 b0bc 8d6f 84be
00000330: 6911 99be f1b7 223d ee5b a8be c39f f7be
00000340: 1ac4 8fbd d1f5 84be d623 c3bd de65 e43d
00000350: 6289 81be 52dd 103e 57be 6dbd 264e 8dbe
00000360: af6d b13d e2f1 fc3d bc45 023d b95b 3bbf
00000370: f645 b5bd c34b 12be 8270 023e ba2b ba3d
00000380: b0fb edbe 6ca2 f2be 37b6 01be 1916 90be
00000390: 4834 46bf 3bad 933e bb9f 2f3e 66be e33b
000003a0: e45c a93d b00a f8be f03b e7be 97a9 a7be
000003b0: 6c97 36be 14f0 733e f77e c8be 97f5 fbbd
000003c0: 432a 71bf 4e09 86bd dcf6 9f3e d9c4 6cbf
000003d0: bb15 cdbe cad0 34be 2c23 883d 4865 07bf
000003e0: 25e6 f5be 488c 85bf d754 4abb dc33 013e
000003f0: 4e13 01bd 00e6 3bbe c148 18be 78e8 a2be
-0.24738622 -0.19369642 0.27334592 -0.38641608 -0.7292442 0.3702146 -0.2368582 -0.29886767
0.24233441 -0.13386665 -0.48624486 0.8439078 -0.19197541 -0.2646561 -0.43671843 0.1411431
-0.11936512 -0.4712201 -0.19448213 0.003141242 -0.5438017 0.018030493 -0.04330167 -0.26524293
-0.58634084 -0.19181755 -0.47176743 -0.30013523 -0.026433911 -0.25640193 -0.3504744 0.055194557
-0.3611761 0.010738618 0.19963762 -0.3095083 -0.3452394 -0.05808258 -0.38625035 0.11933348
-0.09969936 -0.2084562 -0.39504364 0.042047027 -0.19408 -0.23217016 -0.38361916 -0.38432443
-0.04476594 -0.074182756 0.031825643 -0.15477416 0.22267 -0.3199006 -0.20770654 0.20608929
-0.09985955 -0.29521003 -0.1788023 -0.011993739 -0.1246445 0.221288 -0.061834846 -0.25467363
-0.13671528 -0.41936564 -0.28930378 0.04150137 -0.08901882 -0.06483875 -0.10072284 -0.2431726
-0.4232898 -0.20115812 0.1733996 -0.061088778 -0.2267565 0.013639794 -0.40856096 -0.10680807
-0.05209694 -0.36372334 0.07106092 -0.1659095 -0.5246755 0.34974897 -0.30081332 -0.11087928
0.10730384 0.055291507 -0.29465052 -0.069135316 -0.026647508 -0.05869113 -0.4328514 -0.064969234
-0.20184794 -0.60542136 0.2877787 0.15356596 -0.17963377 -0.009038261 0.33669046 0.038917925
0.18770719 -0.123908915 -0.060489744 0.36353576 -0.05269851 0.036597725 0.058923457 0.33390582
-0.16609173 -0.28478232 0.08689845 0.008856788 0.21858591 0.20527832 0.14551838 0.3114008
0.054958113 -0.14470723 -0.055003542 -0.32242376 -0.16993031 0.18609713 -0.40372637 -0.24457048
-0.002409906 -0.18134937 -1.0019552 -0.49707407 -0.11401709 -0.35814485 0.10032198 -0.7033654
-0.13336512 -0.17571501 -0.44053474 0.10015039 -0.64599895 -0.20199361 -0.45305356 -0.5344158
-9.118913 -0.11457182 -0.09747488 -1.1804961 -1.3005818 -0.045900896 -0.37726068 0.26543763
-0.33737203 -0.8431281 -0.5860573 -0.5288416 -0.2983749 -0.041202944 -0.5474569 0.47556716
0.14425269 -0.50198776 0.03167286 -0.21930067 -1.1088744 0.05715487 0.023823969 -0.16233838
-0.7158206 -0.119498864 -0.03122121 0.57922345 -0.22366822 0.29247123 -0.6954898 0.06385411
-0.182604 -1.3147135 -0.21639273 0.08980736 -0.11668873 0.005276074 -0.16711307 -0.11818384
-0.1642784 0.3381029 0.2547142 -0.10469991 -0.47873697 0.034915514 -0.11429684 -0.17216192
-0.095171034 -0.3144927 -0.150173 -0.33739126 0.086627774 -0.18524355 0.036496498 -0.22881845
0.09947954 -0.07704584 -0.021517595 -0.25866356 -0.29896095 0.0397262 -0.32882637 -0.48364076
-0.07019825 -0.25968793 -0.095283195 0.11152242 -0.25300127 0.14146927 -0.05804285 -0.27598685
0.086634986 0.12350823 0.031804785 -0.7318683 -0.088512346 -0.14286713 0.12738231 0.090903714
-0.46481085 -0.47389543 -0.12667166 -0.2814186 -0.77423525 0.28843102 0.17150776 0.0069501875
0.082696706 -0.48445654 -0.45162916 -0.32746574 -0.178312 0.23822051 -0.39159366 -0.12302702
-0.9420511 -0.065447435 0.31243026 -0.92487866 -0.40055642 -0.17657772 0.066473335 -0.5288892
-0.4802715 -1.0433435 -0.0030873322 0.12617439 -0.03151255 -0.18349457 -0.14871503 -0.31817985

model/dense_2/Tensordot/MatMul f4 [16, 32]
00000000: 38bc 99be 6a94 8bbe 70ce 7fbe 428b 7dbd
00000010: 07cd 043e c41f 03be e3ce 21be 35ab fdbd
00000020: 3fa7 0cbe 2c17 f43c 4329 2cbe 0051 9a3d
00000030: 431a 853d 3979 d6bd 156d 3bbd 709b 303d
00000040: 977c 81be 59fb 25be 7a53 0c3e 52a7 193e
00000050: ce64 08be fcc2 8bbd cbf8 c7bd 7eda b7be
00000060: 8c4a 78bd f64f aebe e49a a73d 7966 d8be
00000070: 2f68 03be ce5c 4fbf 049c 9e3d 2f5e c93d
00000080: e4fd 14bd 8b63 f03d 533d 35bd 86a6 bfbd
00000090: 25aa 30bd 2f7f 9f3d 171a 363d 1a58 e23e
000000a0: 7a51 f5bd 4ffc 7abe 71c9 69be 8bdf 303c
000000b0: 994d 00be acc1 3b3d c351 f33d a30a 343c
000000c0: 75ec dcbe b31e bebe 5d96 693e 59ad dd3d
000000d0: 221d 91bc 1f7e bd3d c4bc f7be 54fe 5c3e
000000e0: 6044 42be a3b3 16be 51a7 26bd 3774 ea3d
000000f0: c451 c73d 1839 43be 05b6 bfbd ab65 d83d
00000100: f7dc ba3d 003f 91be 5a7b 223e 6763 93be
00000110: 8755 bdbe 49d2 433e e996 cd3d 92c2 253e
00000120: 6610 8a3d 8cd2 57be 121d c2be a1ce b6be
00000130: cf29 d33c 9e08 54bd 2438 40be 0645 54be
00000140: 80f3 80bd f2fd e2be 9e6d 3a3e ce6c f9bc
00000150: 4898 f63c f8d7 33bd 43ba 81be 62c9 133e
00000160: dc7b 01be b83c 18be 2fe7 8fbe fd38 373d
00000170: ac3c 96bd 88f5 e1be bb0b a03e e34b c2be
00000180: 0d73 4bbe e041 65bc f0cb 48bd 1b34 78bc
00000190: a768 2cbe 8df5 00be b1e4 8bbd 0511 bc3c
000001a0: 20e7 a5bd 275c 10bb b19e acbe 20e2 87be
000001b0: 0d4d 2c3d 2048 cc3c 9e23 c6be ff00 9b3e
000001c0: 3f50 3e3e 3b47 34be 4820 1fbe c96b e43d
000001d0: a10c a1be b440 c0bd d61c edbe f46f fd3b
000001e0: d508 debd 1f5b a1be 77e5 8d3d 75be 89be
000001f0: 714b 91bd f19f 75bd ccb5 023e 01e2 143e
00000200: f3c4 adba eb73 3cbe 8d87 d6bd 937c d0bd
00000210: e17f b0be 0213 8bbc 5ad2 7ebd 3e62 da3d
00000220: bb86 ccbc e001 2b3e 17ef 2fbe 7d40 a5bd
00000230: 8ce1 0cbe 74f6 cfb9 f3c3 823e 4393 00bd
00000240: 3035 8fbd 49d0 d6be d366 883e 3395 c73e
00000250: e554 52bb 9e91 413e 0dcc 62be f77c 473e
00000260: e4bd 15be 1a89 0ebe 1f54 85bd edcf 1cbc
00000270: 9851 553d 01c6 e83c 96df 053e 0c74 e43b
00000280: 6d4e ebbf d2e8 32bc 7721 b3be 1506 02be
00000290: ebed 6a3a acbe 35be 9834 43be 2acc 96be
000002a0: 8fb6 aebb 088e f73c 63bb 93bf 6573 8e3d
000002b0: 79f0 61be 29ba 833d fa6f 89be c781 63bd
000002c0: ab5a b83c ca07 fe3c 4f3d ccbe 8fd8 0ebc
000002d0: 2b1f bbbe 5390 17be 959a 89bd 941a ddbd
000002e0: c218 b4bd 861b 533e e4e8 07be 3f9f b43b
000002f0: dffe 9cbf 46e3 11be 6416 8bbe d2ae 7cbf
00000300: 0547 1bbf 0aff 753e 5af9 733e f54d c13d
00000310: bfab 073c d7eb 29be 68b8 acbd f24a a7be
00000320: 7ad9 81be 15a5 b6be 6b6b 29bf 2447 9dbd
00000330: 4c4b 9abd 9708 c9be c864 abbe f9f3 a43e
00000340: 71b6 213e 613c c83d 50b7 dc3d a94c 083e
00000350: ce29 1ebf c08c 4e3d 1954 1abe dbcc fb3d
00000360: 0122 413e 9d45 b03e 4d8c f9bd 6214 92be
00000370: cb86 a9be e55b ef3d 5fca b43e b7d0 8c3e
00000380: 3ac8 c4be 0027 933b 1051 99bd da20 183e
00000390: 8519 823e c5c6 a8bc e2ee 86bd 4956 c7be
000003a0: 238e a7be dd5d 57be 6d7b 60bd 1d13 a5be
000003b0: b645 69be 2fcb 0e3e c4a6 133e 3498 42be
000003c0: fbf9 8fbe 0abe 57be 9dc0 283e aca6 943e
000003d0: b2a3 81be 40b2 d03d dc70 b4be a58c 12be
000003e0: 3177 053d 2f25 90be c28b d9be ed83 42be
000003f0: 7109 57be 2922 373e a785 55be a94a 033e
-0.30026412 -0.27261668 -0.24981093 -0.061900385 0.12968837 -0.12805086 -0.15801577 -0.12386171
-0.13735674 0.029796205 -0.16812615 0.07534981 0.0649915 -0.1047234 -0.045758326 0.043116987
-0.25290367 -0.16209163 0.13703719 0.15005234 -0.13319704 -0.068243 -0.0976425 -0.35908884
-0.06061797 -0.3404538 0.0818384 -0.4226568 -0.12832712 -0.81000984 0.07744601 0.09832417
-0.03637494 0.11737736 -0.044247936 -0.09357934 -0.043131012 0.0778793 0.044458475 0.4420784
-0.11978431 -0.2451031 -0.2283075 0.010795484 -0.12529601 0.045838997 0.11880829 0.010988864
-0.43149152 -0.37132797 0.22811265 0.10824079 -0.017714087 0.09252571 -0.48386204 0.21581393
-0.18971395 -0.14716963 -0.04068691 0.114479475 0.097323924 -0.19064748 -0.09360889 0.105662666
0.09124177 -0.28368378 0.15867367 -0.28786775 -0.36979315 0.19123186 0.100385495 0.16187504
0.06741409 -0.21076411 -0.37912804 -0.3570452 0.025776772 -0.05176603 -0.18771416 -0.20729455
-0.06296444 -0.4433437 0.18205878 -0.03044739 0.03010191 -0.043907136 -0.2533742 0.1443229
-0.12644905 -0.14866912 -0.28106067 0.044732083 -0.07335791 -0.44132638 0.3125895 -0.37948522
-0.19868107 -0.013992757 -0.049022615 -0.015149142 -0.16836797 -0.1259367 -0.06830729 0.022957334
-0.08100724 -0.0022027583 -0.33714822 -0.26539707 0.04206567 0.024936736 -0.3869905 0.30274197
0.18585299 -0.17605297 -0.15539658 0.11153371 -0.31454948 -0.09387341 -0.46311063 0.007734293
-0.10841528 -0.31514832 0.069285326 -0.2690312 -0.070944674 -0.059966985 0.12764663 0.14539339
-0.0013257548 -0.18403594 -0.10475073 -0.10180011 -0.34472564 -0.016976837 -0.062212326 0.106632695
-0.024966588 0.16699934 -0.1718105 -0.08068941 -0.13757914 -0.0003966574 0.25540122 -0.03139044
-0.069925666 -0.41955784 0.2664095 0.38981017 -0.0032094058 0.18903205 -0.22148152 0.19481264
-0.14623219 -0.13919488 -0.065101855 -0.009571058 0.052079767 0.028414728 0.13073573 0.0069718417
-1.8383309 -0.0109197665 -0.3498647 -0.12697633 0.0008961844 -0.17748517 -0.19063032 -0.2945264
-0.0053318213 0.030219093 -1.1541561 0.069556035 -0.2206439 0.064319916 -0.26843244 -0.055543687
0.022504171 0.031009573 -0.39890525 -0.008718624 -0.36547217 -0.14801149 -0.06718937 -0.10796085
-0.08793785 0.20615968 -0.13272434 0.0055121477 -1.226528 -0.14246854 -0.2716552 -0.98704255
-0.6065524 0.24023071 0.23825589 0.09438697 0.008280694 -0.16593872 -0.0843361 -0.32674366
-0.25361234 -0.35672823 -0.6617953 -0.076795846 -0.07533893 -0.39264366 -0.33475327 0.32217386
0.15792252 0.09777141 0.107771516 0.13310494 -0.6178254 0.0504272 -0.15071143 0.122949325
0.18860628 0.3442811 -0.121849634 -0.28531176 -0.3311065 0.11687449 0.35310647 0.27502987
-0.3843401 0.004490733 -0.074861646 0.14856282 0.25410095 -0.020602593 -0.06588532 -0.38933018
-0.3272563 -0.210319 -0.054805208 -0.32241145 -0.22780499 0.13944696 0.14419085 -0.19003373
-0.28120407 -0.21068588 0.16479726 0.2903341 -0.25320202 0.101902485 -0.35242355 -0.14311464
0.032584373 -0.2815337 -0.4248944 -0.18995638 -0.20999695 0.17884125 -0.20851766 0.1282145

model/dense_3/MatMul f4 [8, 224]
00000000: a011 7bbe 14ee 763e e064 a6bd 0cff edbd
00000010: d419 873f c93e e0bb 0537 283e 897e 5bbd
00000020: 19fb 2d3e 7cc6 773d 1738 94bd 4f72 46be
00000030: a58b 8d3e 8db7 57be 5ae3 5a3e a628 193e
00000040: 4c7c 653c a626 31be 7558 823c 5caa 65bd
00000050: 7541 de3d 9321 daba e33c 2f3e e7da db3d
00000060: 8ec2 663d 4ea0 3abd 40af aabd aef1 ce3c
00000070: 0ab8 9d3b dba6 8b3a d598 29bc 16c3 e5bc
00000080: 397e ed3e 2e88 21be 93c9 dfbb 81db cdbc
00000090: 34aa 1ebe 5301 89bc 617f 14bd daf1 edbb
000000a0: 3b3d a43d a372 263d 7adb 913d 9028 d13d
000000b0: 46e7 04bf 08ed 783b 2476 6bbd 76d0 b0bd
000000c0: f62a 65bb b5c4 6cbd 1870 84bc 0755 393e
000000d0: 6b82 ebbc 0fae 423d 620c 8abd 2725 83bc
000000e0: c126 c6bb bc30 c9bd 8790 a5bd 1eaa 2c3e
000000f0: 5685 bd3c ed63 f5bc b06d 243d b9e0 1fbd
00000100: 55f1 b53f be98 ffbe 2f42 223e 2320 a83e
00000110: 0960 cabe e73f db3c fee2 053d 94a8 ab3e
00000120: afa0 a1be fa3e 9b3d e97f ab3d 140d 87bc
00000130: e2c2 c3bf c9f4 823d 598b 15be 14fe fd3c
00000140: 745d c9bc ff53 c6bc 8f05 95bd aaff 8c3d
00000150: 9779 40bd 6acf acbe fc1c d2bc 0f68 9ebd
00000160: 7c6c c83d b886 17bd 4b56 e93c ad10 213e
00000170: 02f9 243b 6c8a 9b3d 1862 993c 7c11 fa3c
00000180: eb26 6cbf 98c7 9b3d 001b fcbc a612 28be
00000190: 378f 80bd 51fa d6bd 7ece af3d 8e73 0dbe
000001a0: 7d41 a33e ee44 6bbe c78d f4bd e4e6 6cbc
000001b0: 10d2 253f f871 1cbc 8cfc 193d 4e96 c23d
000001c0: d8a5 6ebf 4d21 943e f45d 40bd 2c4e abbd
000001d0: 06ee a9bc 23c2 143e 641b dfbd ac01 eb3d
000001e0: a1b7 b43e 9560 abbe 269b 3c3d 90b1 7dbe
000001f0: 3a42 473f 8d18 623d 12ba 123e d01a 133d
00000200: 0958 b13f 8f87 f1be 8dd3 573e e487 133f
00000210: ddf3 08bf 4e7c c53d f487 54bd e6b3 d93e
00000220: 8640 e7be 013b cc3e 36c0 da3e de95 aa3e
00000230: f196 c2bf ca14 493d 0cde d3be f3fc ae3e
00000240: 7c66 2d3b 383f a33a 97b4 cf3d 61ed ba3d
00000250: 4533 2dbd 199a bb3d 9862 e73c e893 f83b
00000260: 894d 003e 0d3b 463e d8c6 513d 9456 2a3e
00000270: 044b cabc ddaf 96bd 84d1 f5ba 46a2 8e3d
00000280: d4b9 ed3e f3e5 7ebe 7456 84bc b7db 993e
00000290: 1fac f1be b216 193d 69f9 12be cccb 493e
000002a0: f52f 713c 726f 4a3d d9ee 4b3d 00fc e2bc
000002b0: 85af 01bf 8649 483d 6191 863c 1920 93bc
000002c0: 14ef 83bc 2e2f febc 92d7 2d3d 0dd8 3fbc
000002d0: 0704 a8bd 6e50 3d3d 98b6 cc3c 4262 e4bd
000002e0: 9510 c7bd 5fa3 243d 4a35 5b3c b0e4 8bbd
000002f0: 5ebf 8bbb 11c5 03be c56e e43c 2713 8c3d
00000300: cddb 7cbe 9619 ff3d cb12 76bd 5b1c 6b3d
00000310: de6d b63f 0517 013c eb1d 61be c1e7 0ebd
00000320: d3d3 093c 6f93 613d 3442 bfbd 1661 39bd
00000330: 51cf 883e 4815 69bd fb63 6b3e f9d0 bebd
00000340: 2b38 26bc 6cf0 eb3c 069b db3c 1e3a 343e
00000350: 3a21 4a3e 1ce1 9dbd d03d 33be c0db ecbc
00000360: ba0b 89bc b2db c13c c98a 123e fef9 c23d
00000370: 869f bbbc f019 a3bd c07f 6cbd 4061 37bc
00000380: 396a 5cbc f97f 62be 078b 36bd 755a 1f3e
00000390: b88a b23c dece a73e 1709 ebbd af9d 133d
000003a0: 0a39 153d 8241 a33b e5a1 913d 1a36 0f3e
000003b0: 66b5 3e3c 1719 643d cfcb acbc d2a8 13bd
000003c0: c9aa 7ebe de62 893e 4444 fdbc d3fc 22be
000003d0: 3b47 d63f d812 813e 9fa6 143e c927 97bd
000003e0: f1be 7c3e 0c98 643e dd7e 14be c4a3 4c3d
000003f0: 423e 643e 78d0 cf3b f04b 6a3e dc37 303c
-0.24518442 0.24114257 -0.08124709 -0.11620912 1.0554757 -0.006843422 0.16427238 -0.05358747
0.16990317 0.060492024 -0.07237261 -0.19379543 0.27645603 -0.21066113 0.2137579 0.14956912
0.014006685 -0.172999 0.01591132 -0.05607067 0.10852329 -0.0016642086 0.1711307 0.10735112
0.056337886 -0.045563035 -0.083342075 0.025261726 0.004813199 0.0010654585 -0.010351379 -0.028047126
0.46385363 -0.15774605 -0.0068294494 -0.025129082 -0.15494615 -0.016724264 -0.03625429 -0.007261497
0.08019491 0.04063667 0.0712194 0.10212815 -0.51915395 0.0037983079 -0.057485715 -0.08633511
-0.0034968234 -0.057804782 -0.016166732 0.18098842 -0.028748712 0.047529276 -0.06740643 -0.016008927
-0.0060471003 -0.098237485 -0.08084207 0.1686177 0.023134869 -0.029954875 0.04014367 -0.03903267
1.4214274 -0.4992122 0.1584556 0.32837018 -0.39526394 0.02676387 0.03268718 0.33527052
-0.31567904 0.07580371 0.08374006 -0.016485728 -1.5293849 0.06394345 -0.14603938 0.031004943
-0.024580695 -0.024209974 -0.07276451 0.068847016 -0.046990957 -0.33751994 -0.025648586 -0.07734691
0.09786317 -0.036993712 0.02848353 0.15729018 0.0025172834 0.07594761 0.018723533 0.030525915
-0.92246884 0.07606429 -0.030774593 -0.16413364 -0.06277316 -0.10496963 0.08584307 -0.13813612
0.318859 -0.22975513 -0.119411044 -0.0144593455 0.64773655 -0.009548657 0.037594363 0.095013246
-0.9322181 0.28931656 -0.0469646 -0.083645195 -0.020743381 0.14527182 -0.10893896 0.11474928
0.35296348 -0.33472124 0.0460464 -0.24774766 0.7783543 0.055199195 0.14328793 0.035914242
1.3854991 -0.47173735 0.21076794 0.5762923 -0.53497106 0.0964285 -0.051887468 0.42520064
-0.45166415 0.39888766 0.4272477 0.33317465 -1.5202314 0.04909209 -0.41380346 0.3417736
0.002645879 0.0012454754 0.10141867 0.09127308 -0.042285223 0.09160251 0.028245255 0.007585991
0.12529577 0.19358464 0.051215023 0.1663459 -0.024693973 -0.07357762 -0.0018754457 0.06964545
0.46430838 -0.24892406 -0.016154505 0.30050442 -0.4720163 0.03737516 -0.14352955 0.19706649
0.0147209065 0.04942269 0.04978833 -0.027708054 -0.50658447 0.048898242 0.016426744 -0.017959641
-0.016105212 -0.031028356 0.042441912 -0.011709225 -0.08203893 0.04621928 0.024989411 -0.11151554
-0.0971996 0.040194865 0.013379404 -0.06830728 -0.004264756 -0.12868144 0.02788485 0.068395905
-0.24693222 0.12456052 -0.060076516 0.05740009 1.4252279 0.007879023 -0.21984069 -0.034888986
0.008412319 0.055072244 -0.09338799 -0.045258604 0.2672067 -0.05690506 0.22987358 -0.09317202
-0.010145227 0.028801166 0.02680732 0.17600295 0.19739237 -0.07708952 -0.17504048 -0.028913379
-0.016729224 0.02366433 0.14310755 0.095203385 -0.022903215 -0.079639316 -0.05773902 -0.01119262
-0.01345306 -0.2211913 -0.04456618 0.1556185 0.021794662 0.32775015 -0.11476343 0.03603905
0.03643135 0.0049821744 0.07110957 0.13985482 0.011639928 0.05568799 -0.021093277 -0.03604967
-0.24869837 0.26833242 -0.03091634 -0.15916757 1.6740488 0.2520969 0.14516686 -0.07380635
0.24682213 0.22323626 -0.1450152 0.049960867 0.22289374 0.00634199 0.2288053 0.010755505
